models/adult_nn_torch.pt (torch, 36527 bytes, 4 tensors)

weight f4 [64, 101]
0	0xc0150202	-2.3282475
1	0x3e94ad50	0.29038477
2	0xbeb354d0	-0.35025644
3	0xc00a19b5	-2.157819
4	0xbecc0a43	-0.3985158
5	0x3d14015c	0.03613411
6	0xbed40666	-0.41411132
7	0xbdd1d4ae	-0.102456436
8	0x3e3bceb8	0.18340576
9	0xbf83894f	-1.0276278
10	0x3f2a9a1a	0.6664139
11	0x3f001802	0.50036633
12	0x3dfa905e	0.12234567
13	0x3f6f6311	0.9351054
14	0xbf808b55	-1.0042521
15	0x3f409f60	0.75243187
16	0x3e53bbe5	0.20677145
17	0x3ecf5a33	0.40498504
18	0x3f903e16	1.1268947
19	0xbdc9f9ed	-0.09862123
20	0x3eb92ca5	0.36166874
21	0x3e29fd2a	0.1660048
22	0x3e55237a	0.20814314
23	0xbf93dfbb	-1.1552652
24	0xbe85643d	-0.26053038
25	0x3ea6eee0	0.32604122
26	0x3e81ce74	0.25352824
27	0xbf6e8ec9	-0.9318662
28	0x3e720448	0.23634446
29	0x3f9fd703	1.2487491
30	0xbefa1581	-0.4884453
31	0x3f8c94d3	1.0982918
32	0x3fa11116	1.2583339
33	0xbf31956f	-0.6936864
34	0x3f53012d	0.8242367
35	0x3edb05d9	0.427779
36	0x3f20bde6	0.6278976
37	0xbdc4f712	-0.096174374
38	0xbee251b0	-0.44202948
39	0x3f58c9ba	0.8468281
40	0x3fb44019	1.4082061
41	0x3f84a692	1.0363333
42	0x3f72bb7c	0.9481733
43	0x3f5615e1	0.83627135
44	0xbe742424	-0.23841912
45	0xbf45a487	-0.77204174
46	0xbeac06c6	-0.33598918
47	0xbec02cb1	-0.37534097
48	0xbe1c7fd8	-0.15283144
49	0xbf0af520	-0.5428028
50	0x3fae96fb	1.3639826
51	0x3fc24ff6	1.5180652
52	0x3ff2bb15	1.8963343
53	0x3e4ed187	0.20197116
54	0xbfa35b55	-1.2762247
55	0x3df800a4	0.12109497
56	0x3ea3fcb8	0.32028747
57	0x3da788a2	0.081803575
58	0x3cf391b8	0.02973257
59	0xbecaaea5	-0.39586368
60	0xbe4aff01	-0.19823839
61	0xbe78107a	-0.24225035
62	0x3df11ef8	0.11773485
63	0x3f4020f1	0.75050265
64	0x3f833155	1.024943
65	0x3f91bb95	1.138537
66	0xbec3af0a	-0.38219482
67	0x3f89b0d7	1.0757092
68	0xbf1b544f	-0.6067552
69	0xbf08c22e	-0.53421295
70	0x3ee91714	0.4552542
71	0x3ec447b3	0.38335952
72	0x3f907605	1.1286017
73	0xbf1a9699	-0.60386044
74	0x3deff122	0.11715914
75	0xbdda843a	-0.106697515
76	0x3cab3327	0.020898415
77	0x3e6e9a15	0.23300965
78	0x3ecaf2d2	0.39638382
79	0xbe135f76	-0.14391884
80	0xbef697b3	-0.48162612
81	0xbecd73b5	-0.4012734
82	0x3e0dd7f1	0.13851906
83	0x3f848e9e	1.0356023
84	0x3f8f9faa	1.1220601
85	0x3f904518	1.1271086
86	0x3ec989d4	0.39362967
87	0x3f3f4089	0.7470785
88	0x3f1c57a0	0.61071205
89	0xbe8b9648	-0.27263093
90	0xbf184516	-0.59480417
91	0xbe79fc36	-0.24412617
92	0x3e4aff9f	0.19824074
93	0xbee2f02b	-0.4432386
94	0x3dfdd437	0.123939924
95	0x3f103335	0.56328136
96	0x3e33fc9a	0.17576829
97	0xbb93ec0e	-0.004514224
98	0xbe193b00	-0.14963913
99	0x3f9f2b84	1.2435155
100	0xbf1e5860	-0.618536
101	0xbf9788b5	-1.1838595
102	0xbf05d3ac	-0.5227611
103	0xbfa9881c	-1.3244662
104	0x3e20cbc8	0.15702736
105	0xbf56e0ec	-0.83936954
106	0xbe8f933f	-0.28042027
107	0xbebe6018	-0.3718269
108	0x3f5f5683	0.8724138
109	0x3ea7b92b	0.3275846
110	0xbe087d1c	-0.13328975
111	0x3d5fc0c7	0.054627206
112	0x3f341b5d	0.70354253
113	0x3f147835	0.5799592
114	0x3f86d756	1.0534465
115	0x3fc5821c	1.5430331
116	0x3f7c2dc5	0.9850734
117	0x3ed5fd0e	0.41794628
118	0xbe92b57c	-0.28654087
119	0x3f91a8ed	1.1379677
120	0x3ea21795	0.31658617
121	0x3e18e0cc	0.14929503
122	0xbb1d47f8	-0.0023999196
123	0xbe04a032	-0.12951735
124	0xbfa2eba7	-1.2728165
125	0x3f85f477	1.046523
126	0x3df11eb4	0.11773434
127	0x3e948bb7	0.29012844
128	0xbf043e5f	-0.5165767
129	0xbd929ba4	-0.07158592
130	0x3f9e093d	1.2346569
131	0xbefcf139	-0.49402788
132	0x3fb3c8dd	1.4045674
133	0x400cce3c	2.2000875
134	0xbd8b49e5	-0.06801204
135	0x3f20de98	0.6283965
136	0x3eb88cde	0.36044973
137	0x3ec1ca91	0.37849858
138	0x3f987e12	1.1913474
139	0xbf9e89b8	-1.2385778
140	0x3ff5c381	1.9200288
141	0x3fc3a857	1.5285748
142	0x3f20a08b	0.6274497
143	0x3f9d9665	1.2311522
144	0x3f33afe7	0.7019028
145	0xbf2d9a2c	-0.6781337
146	0xbef7eae1	-0.48421386
147	0x3eca1f8d	0.39477196
148	0xbeeb5ebf	-0.45970723
149	0x3e828cc6	0.25498027
150	0xbed33d52	-0.4125772
151	0x3fd4175b	1.6569628
152	0x3fda0b0b	1.703462
153	0x4013bd1c	2.3084173
154	0x3f5249d2	0.8214389
155	0xbed2fd12	-0.41208702
156	0x3fabcf5d	1.3422657
157	0xbec17fb3	-0.3779274
158	0xbee2306d	-0.4417757
159	0x3efb702c	0.49109018
160	0xbdd31514	-0.10306755
161	0xbed913ad	-0.42397824
162	0xbf542b93	-0.8287899
163	0x3f8b9362	1.0904353
164	0x3fa79b88	1.3094339
165	0xbec1e05c	-0.37866485
166	0x3f0da476	0.5532907
167	0x3e90f2a6	0.28310126
168	0x3faed52b	1.3658804
169	0x3f37322e	0.71560943
170	0xbe284eea	-0.16436353
171	0x3eb8f1fb	0.36122116
172	0x3f898fd1	1.0747014
173	0x3f9cdc69	1.2254764
174	0xbd0904a5	-0.033451695
175	0x3e35540e	0.17707846
176	0x3da0d736	0.07853548
177	0x3f16022b	0.5859706
178	0xbe10bc6d	-0.14134379
179	0xbe2550f9	-0.1614417
180	0xbf1ce405	-0.6128543
181	0xbf0bb3e9	-0.54571396
182	0xbef1beda	-0.4721592
183	0x3f69287d	0.91077405
184	0x3fa30d11	1.2738363
185	0x3f67ceb0	0.90549755
186	0x3f1ba764	0.6080229
187	0xbfa5026d	-1.2891365
188	0x3f2710ee	0.6526021
189	0x3ee1bc5d	0.44089022
190	0xbf1eb622	-0.6199666
191	0xbd5a73e5	-0.053333182
192	0xbf08ea03	-0.53482074
193	0x3fc4301d	1.5327183
194	0xbeeb7991	-0.45991185
195	0x3db31d53	0.087458275
196	0xbd0a161c	-0.03371249
197	0xbf0c66bf	-0.5484428
198	0xbd32b440	-0.04362893
199	0x3e6aaf72	0.2291849
200	0x3f759e56	0.95944726
201	0x3f4bad02	0.79560864
202	0x3f8856a7	1.0651444
203	0xbe8f528b	-0.27992663
204	0x3f048e97	0.51780075
205	0x40221f49	2.5331595
206	0x3f51c398	0.8193908
207	0x3db40210	0.08789456
208	0x3f1324f9	0.5747829
209	0x3cd007ee	0.025394406
210	0x3e8e310a	0.2777179
211	0xbea21190	-0.31654024
212	0xbfa3dda9	-1.280202
213	0xbf33c42c	-0.7022121
214	0xbf02251f	-0.5083789
215	0xbf18a649	-0.5962873
216	0x3dbd2363	0.09235265
217	0xbf557569	-0.8338228
218	0xbf0b082f	-0.5430936
219	0x3f3e0416	0.74224985
220	0xbf6f6324	-0.9351065
221	0xbf3b26fa	-0.7310635
222	0xbedd73ef	-0.43252513
223	0xbf0e0e14	-0.5549023
224	0xbeeadfc1	-0.45873836
225	0x3f6a9190	0.9162836
226	0x3ed84016	0.42236394
227	0x3ea35d8e	0.31907314
228	0xbe9bba91	-0.30415776
229	0x3fb3a18d	1.4033676
230	0xbeb7c65f	-0.35893533
231	0xbe1bb7ef	-0.15206884
232	0xbea3afd8	-0.31970096
233	0xbf83331c	-1.0249972
234	0x3e236824	0.15957695
235	0xbf6527ac	-0.8951366
236	0xbeb4b579	-0.35294703
237	0xbc4179bd	-0.01180881
238	0xbf10acfc	-0.56513953
239	0xbea2f27d	-0.3182563
240	0x3f242c8b	0.6413047
241	0xbf3b4367	-0.7314972
242	0xbf7d7a4d	-0.9901474
243	0xbf42cad3	-0.76090735
244	0xbedc2007	-0.42993185
245	0xbf6d6cae	-0.9274396
246	0xbda6df94	-0.08148113
247	0xbe3f8c7e	-0.18705937
248	0x3a0ecc0c	0.00054472755
249	0x3f8be306	1.0928657
250	0xbfbd1b9f	-1.4774054
251	0xbe8971ca	-0.26844627
252	0xbe7bdb6d	-0.24595423
253	0xbf49d11a	-0.7883469
254	0xbfa69eb3	-1.3017181
255	0x3d4edfdc	0.050506458

bias f4 [64]
0	0x3de3d076	0.11123745
1	0x3f076666	0.5289062
2	0xbe8eb402	-0.2787171
3	0xbef96617	-0.487107
4	0xbd0e50d8	-0.034745067
5	0xbed27828	-0.41107297
6	0x3e1637e6	0.14669761
7	0x3e7032dc	0.23456901
8	0x3dbfe246	0.0936933
9	0xbf047554	-0.5174153
10	0x3ca4806b	0.020080766
11	0xbf723c16	-0.94622934
12	0x3f4b2b8a	0.7936331
13	0xbeff682b	-0.4988416
14	0x3ccbfcbc	0.024900787
15	0xbf197cd0	-0.59956074
16	0x3db01795	0.08598248
17	0x3e66c076	0.22534356
18	0xbd1ba16d	-0.037995744
19	0xbdcb921d	-0.09939978
20	0xbe7a9d2d	-0.2447402
21	0xbf03c02a	-0.51465094
22	0xb7878480	-1.6154954e-05
23	0xbec02311	-0.37526754
24	0x3e150137	0.14551245
25	0x3e81b42c	0.25332773
26	0x3edb1b51	0.42794278
27	0x3eea078f	0.45708892
28	0x3e344b68	0.1760689
29	0x3df04bac	0.11733183
30	0x3d1fceeb	0.03901569
31	0xbe0cda37	-0.13755117
32	0x3ee319d8	0.44355655
33	0xbe56fc2f	-0.20994638
34	0xbe703d9b	-0.23461
35	0xbd9b9fe9	-0.0759886
36	0x3dfe27e1	0.1240995
37	0xbcf19355	-0.029489199
38	0xbd4381e6	-0.047731303
39	0xbeac18da	-0.3361271
40	0x3e04516d	0.12921686
41	0x3e907db5	0.28220907
42	0x3e924b12	0.285729
43	0xbdaaa58b	-0.08332356
44	0xbe09d279	-0.13459195
45	0x3e0ae68e	0.13564512
46	0xbe975901	-0.29560092
47	0xbc26d8f4	-0.010183562
48	0xbd33fc42	-0.043941744
49	0xbf15e3b0	-0.5855055
50	0x3f097456	0.5369314
51	0x3db26b75	0.08711902
52	0xbda10fad	-0.07864318
53	0xbeb6fc75	-0.35739484
54	0xbeb4716e	-0.3524279
55	0x3e800aa1	0.2500811
56	0xbf1a7b29	-0.6034418
57	0x3e619609	0.2202989
58	0x3f20a2a9	0.627482
59	0x3c34bd9e	0.011031536
60	0xbed090d7	-0.40735504
61	0x3f356fb9	0.708736
62	0xbeb7411f	-0.3579187
63	0xbefdbc61	-0.49557784

weight f4 [2, 64]
0	0x3eec7ec9	0.4619048
1	0x3f0faf8d	0.56127244
2	0xbe22198e	-0.15830061
3	0xbf1fb8f4	-0.6239159
4	0xbdff6900	-0.12471199
5	0xbe5c97c4	-0.21542269
6	0x3f0a6b71	0.5407019
7	0x3e5073c7	0.20356666
8	0xbf00dd55	-0.50337726
9	0xbedba3b9	-0.42898348
10	0xbd2a7740	-0.041617632
11	0xbf48b613	-0.78402823
12	0x3e8c5ef2	0.27416188
13	0xbed09e00	-0.40745544
14	0x3ebe7a42	0.3720265
15	0xbe255f5d	-0.1614966
16	0xbe282536	-0.16420445
17	0x3e36e333	0.17860107
18	0xbe92f9c6	-0.28706187
19	0xbdaf1d75	-0.0855054
20	0xbde5fcae	-0.112298355
21	0xbeb2fbf9	-0.34957865
22	0xbe1b79df	-0.15183209
23	0xbe1a21a7	-0.150519
24	0x3e71b051	0.23602416
25	0xbeba05b4	-0.36332476
26	0xbdb5afef	-0.08871447
27	0x3d8a72c9	0.06760175
28	0xbea11072	-0.3145786
29	0x3e5775a1	0.21040966
30	0x3ee9a068	0.45630193
31	0xbd86271f	-0.065504305
32	0x3e69bcc5	0.22825916
33	0xbdad32dc	-0.08456966
34	0xbee1b6d5	-0.44084802
35	0x3f35c09e	0.70997036
36	0xbeb88254	-0.36036932
37	0xbee9b1f0	-0.45643568
38	0x3e998b5d	0.29989138
39	0xbdf84c82	-0.12123968
40	0x3c82d18d	0.015969062
41	0x3e2dbff7	0.1696776
42	0x3ee4c7c0	0.44683647
43	0xbf024ede	-0.5090159
44	0xbf145b3b	-0.57951707
45	0x3e91c848	0.28473115
46	0xbefdf175	-0.4959828
47	0xbe967b7d	-0.2939109
48	0xbf405abc	-0.7513845
49	0xbf1561b8	-0.5835223
50	0xbc4c9052	-0.0124855805
51	0x3f3ad7e6	0.72985685
52	0xbf1fd9e6	-0.6244186
53	0xbf383c8e	-0.719674
54	0xbe764439	-0.24049462
55	0xbf43048f	-0.7617883
56	0xbe8ba15c	-0.27271545
57	0x3e09b593	0.13448171
58	0x3e082b08	0.13297665
59	0x3e981a46	0.29707545
60	0xbd89ba55	-0.06724993
61	0x3f1ba6d6	0.60801446
62	0xbee08912	-0.43854576
63	0xbefa4752	-0.48882538
64	0xbef576dc	-0.47942245
65	0xbf1540f5	-0.5830224
66	0x3e536040	0.20642185
67	0x3f212cba	0.6295887
68	0x3d5f1103	0.054459583
69	0x3e6b087c	0.22952455
70	0xbf2be7a2	-0.6715032
71	0xbd6b0f56	-0.057387672
72	0x3ef2e09f	0.47436997
73	0x3ed1e122	0.40992075
74	0x3c3b4e93	0.011432308
75	0x3f1c53e8	0.6106553
76	0xbe59c354	-0.21265918
77	0x3eb1482d	0.34625378
78	0xbe91208f	-0.28345153
79	0x3e3db81c	0.18527263
80	0x3df2eb35	0.118612684
81	0xbdd03d21	-0.101679094
82	0x3e851dea	0.25999385
83	0x3da82ac6	0.082112834
84	0x3dd87366	0.105688855
85	0x3ec9aa00	0.39387512
86	0x3e0a1128	0.13483107
87	0x3d68f553	0.056874584
88	0xbedd4b5c	-0.43221557
89	0x3f16609a	0.5874115
90	0x3e327b8d	0.17429943
91	0xbe00dc1c	-0.12583965
92	0x3e900410	0.281281
93	0xbde253a6	-0.11051111
94	0xbf21df43	-0.63231295
95	0xbd8ced05	-0.068811454
96	0xbecbffb7	-0.39843532
97	0xbd6db5d2	-0.058034725
98	0x3ec68528	0.38773465
99	0xbf3b889e	-0.73255336
100	0x3e9fdb75	0.3122212
101	0x3f048e42	0.5177957
102	0xbe72c14c	-0.2370655
103	0x3e58aaa0	0.21158838
104	0x3d86e9da	0.065875724
105	0xbe0c8199	-0.13721313
106	0xbf12bf6c	-0.57323337
107	0x3f2d3e03	0.6767275
108	0x3f1b8288	0.6074605
109	0xbeb4477c	-0.35210788
110	0x3f12c40a	0.5733038
111	0x3ddac094	0.106812626
112	0x3f632ee7	0.8874344
113	0x3f15e6dc	0.5855539
114	0x3d81409a	0.0631115
115	0xbf3f35b0	-0.74691296
116	0x3ee73cbb	0.4516352
117	0x3f3c08d3	0.73450965
118	0x3ecfeb1c	0.40609062
119	0x3f366c57	0.71259063
120	0x3eececfe	0.4627456
121	0xbdf045b3	-0.11732044
122	0xbe9a7709	-0.30168942
123	0xbeb42baa	-0.35189563
124	0x3d63427b	0.055483323
125	0xbf2e9b72	-0.6820594
126	0x3f1258dc	0.5716684
127	0x3eb2b47d	0.34903327

bias f4 [2]
0	0x3f4a1f66	0.7895416
1	0xbf485a8f	-0.7826318
