models/adult_nn_torch.pt (torch, 37295 bytes, 4 tensors)

weight f4 [64, 104]
00000000: f39e 103f a893 4a3f 733d 17be 5edb aabe
00000010: 97cf aebe 36c8 ce3e 8804 5d3f f044 17bf
00000020: e620 163f b984 b43f 0e87 b73f 62df 953e
00000030: 7d63 ea3e 20e7 683f 48d8 5b3f d095 1c3f
00000040: b5f5 7f3e e156 083e 5b86 b4bd 3670 dcbe
00000050: 1e8b 1b3f 82e5 f23f 7a35 fb3e 015d 403e
00000060: c965 e03f 2fce 17be cc88 c13d a8b0 c13d
00000070: a0f1 38bf d00b a33e 6c83 43bf a8f8 f6bd
00000080: cb92 15bf b4db ab3f 36c7 4b3f 3577 ab3f
00000090: 04b6 c83f 6d79 16be 9a3f d13f dc19 67bf
000000a0: 169e 6a3f 4c27 c13f 59d5 a53f 57f6 ee3f
000000b0: 2951 373f 7920 483f 8345 0bbf cd47 213f
000000c0: 9a7a 9bbf d49d 133f bde4 3e3f 7660 f43f
000000d0: 7ad9 aa3f 9f06 4f3f 5d94 813e 5d6a 8cbf
000000e0: 718d f13f 0ba3 c2be 8cc7 a03e caf6 213f
000000f0: 1263 123f 1711 573f 4832 623f 1512 30bf
00000100: 7435 133f 921b c6bf 57de 563f b483 943d
00000110: 8679 863f ac66 40be 594a f03e 0b4e 923f
00000120: 54e6 c6bf 6650 93bf 615c 013e 4de5 8a3f
00000130: 11e7 d93e 9a21 c43e 3235 9d3d 09e7 2abf
00000140: 28b7 463e 5350 94bd 1124 d9be e3c8 1fbe
00000150: b013 033f 9520 7a3f 790a bf3f c0c1 343f
00000160: 2544 c7be 653a 4fbe 5b38 413f b6a9 d13d
00000170: 2435 993d b408 ac3e 9305 dcbf 199c 863f
00000180: 8af8 69be fbab 763f f344 afbd 6ec7 3bbf
00000190: 09d2 d7bd e0fb 673f 7c83 513f 4c31 62bc
000001a0: fd3f 59be 7b76 a23e 89ae 273f 3b4c 6a40
000001b0: f121 173f 1dfb 21bf 456c 013f 6b70 16c0
000001c0: b8ea 56bf aff2 be3f 8428 003e b4ee a8bf
000001d0: 85de 56bf d255 5dbe 1261 e2be a4a4 8abf
000001e0: 8836 a8be 6e2b 80bf 7fc0 81be c2de 56bf
000001f0: f171 0340 c64b 9abf 6344 113d 56d2 8bbe
00000200: 69cb b6bf e342 49bf 6809 e0be b357 fe3e
00000210: e7fa 4cbd ff26 6ec0 e6bf 0440 1af5 023f
00000220: 5523 b43c e2df acbf 0091 afbf 8469 6fbf
00000230: 3575 3b3f 9c13 d7bd 5fcf 5dbf 40c4 59bd
00000240: 1437 7dbf 54aa 1fc0 052e 39c0 61ca 4dc0
00000250: 2e09 93bf 8668 353f cbf7 c0bf 2566 31be
00000260: 9ae3 f63f 3d4a 93bd a369 15be 6fe6 42c0
00000270: 5615 babf 6e87 01c0 5d0d d4bf d071 0640
00000280: 6bdc 34bf c558 d0bf 02cf 61bf a0ae e5bf
00000290: 63af dbbe 3363 c03e dcbd 88bf b0d5 753f
000002a0: 2e43 11bf bddb 5cbf eeee acbf 94f9 903f
000002b0: 2222 8cbf 4c38 fd3e 8424 9bbf 594f 07bf
000002c0: 20d6 4c3f 6532 a23e 11fd 17be 3a94 0cbf
000002d0: e0d8 ef3e c895 5bbe 585f ddbd 7fa7 8abe
000002e0: de82 1dbf de35 84bf 11a7 873e c4e4 483f
000002f0: 5c89 0c40 b345 1ac0 2fd7 3cbf 60cc 07c0
00000300: aaf8 4dbf edbb aa3e 1846 56bf 05ba 72bf
00000310: 3d30 9e3e 8cf5 8c3f 2ccb d93f 01f0 e7bd
00000320: 6532 4b3f 131d 16c0 689e 02c0 b3a6 b1be
00000330: 0d23 39bf b473 d8be c93d 1ec0 a1d2 cebf
00000340: b4b8 5e3f 2701 693f 202d 3abe 2e7e 4e40
00000350: 1ecd 603f bb43 883f 632d 50be 8e5c db3e
00000360: 3072 993f d008 503f 0e8c 68bf 1bf6 2abf
00000370: 7a61 92be 43da 333f 924a cb3e 460f ccbf
00000380: 2db0 c8be 0863 b3bf 6174 c9be 1c07 19bf
00000390: 1c2f d8be 391b 7fbf 8a1b 7abf 6873 1dbf
000003a0: e200 a23f 33f9 ae3f 27e8 1c3e e1d8 113e
000003b0: dc20 3c3f 3556 063f 6526 58bf 55a3 303f
000003c0: 9138 283a fa05 36bf 50f8 c4be 40f1 8cbf
000003d0: 4115 ef3e 68f5 d3bd 3ac5 ab3e 0415 a43d
000003e0: b67e 80be a631 c2bf a732 f0bf 4791 42c0
000003f0: b771 56bf 3061 e83d 484b 2a3f 60f4 bf3f
0.5649254 0.79131556 -0.14769535 -0.3337049 -0.34142753 0.40387124 0.8633504 -0.59089565
0.5864395 1.4103004 1.433809 0.2927199 0.4577903 0.9097767 0.85876894 0.61166096
0.24996074 0.13314392 -0.08814689 -0.4305436 0.6075915 1.897629 0.49064237 0.18785478
1.7531062 -0.14824747 0.0944992 0.09457523 -0.7224369 0.3184495 -0.7637241 -0.12059146
-0.58427113 1.3426423 0.79600847 1.3395754 1.5680547 -0.14694758 1.6347535 -0.90273833
0.9164747 1.5090117 1.2955734 1.8668927 0.71608216 0.7817455 -0.5440294 0.63000184
-1.214679 0.576627 0.74567777 1.9091938 1.3347619 0.8086948 0.25308505 -1.096996
1.887129 -0.38015017 0.31402242 0.63267195 0.5718242 0.8401045 0.88357973 -0.6877759
0.5750344 -1.5477164 0.83933014 0.07251683 1.0505836 -0.18789166 0.46931723 1.1430067
-1.553904 -1.1508911 0.12632896 1.0851227 0.42559102 0.38306886 0.07676162 -0.6675878
0.19405806 -0.07241883 -0.4241033 -0.15603976 0.51201916 0.97705966 1.4925071 0.7060814
-0.38919178 -0.2023712 0.75476617 0.10237448 0.07480839 0.3360039 -1.7189201 1.0516387
-0.22848716 0.9635617 -0.08558073 -0.7335118 -0.10538108 0.90618706 0.81841254 -0.013805699
-0.21215816 0.31731018 0.65500695 3.6609027 0.59036165 -0.63273793 0.5055583 -2.3506114
-0.839519 1.4917811 0.12515455 -1.3197846 -0.8393329 -0.21614769 -0.44214684 -1.0831494
-0.32854104 -1.0013254 -0.25342175 -0.8393365 2.0538294 -1.2054374 0.03546561 -0.2730891
-1.4280826 -0.78617686 -0.43757176 0.49676284 -0.050043967 -3.7211301 2.0742126 0.51155245
0.021989504 -1.3505824 -1.3716125 -0.9352038 0.7322572 -0.10501787 -0.8664455 -0.053165674
-0.9891217 -2.494771 -2.8934338 -3.2154772 -1.1487176 0.70862615 -1.507562 -0.17324121
1.9288208 -0.07191894 -0.14591078 -3.0453146 -1.4537761 -2.023891 -1.6566578 2.1006966
-0.7064883 -1.627709 -0.88206494 -1.7943916 -0.42907247 0.37575683 -1.068294 0.96029186
-0.56743133 -0.86272794 -1.3510416 1.1326165 -1.0947917 0.49457014 -1.2120519 -0.5285545
0.8001423 0.31679073 -0.14842631 -0.54913676 0.4684515 -0.21443856 -0.10809201 -0.27080914
-0.6152781 -1.0328939 0.2649465 0.7847407 2.1958838 -2.410504 -0.73765844 -2.121849
-0.80457556 0.333465 -0.83700705 -0.94815093 0.30896178 1.1012435 1.7015128 -0.11325074
0.7937377 -2.3455245 -2.0409184 -0.34697494 -0.7231911 -0.42275774 -2.472521 -1.6158029
0.87000585 0.91017383 -0.18181276 3.2264514 0.87812984 1.064567 -0.20329814 0.4284405
1.1987972 0.81263447 -0.90838706 -0.6678178 -0.28589994 0.70254916 0.3970533 -1.5942161
-0.3919691 -1.4014597 -0.39346603 -0.59776473 -0.42223442 -0.99650913 -0.9769827 -0.6150422
1.265652 1.36698 0.15322934 0.14242889 0.7348764 0.5247529 -0.84433585 0.68999225
0.00064171205 -0.7110287 -0.38470697 -1.1011124 0.46695903 -0.10349542 0.3354891 0.08011821
-0.25096673 -1.5171402 -1.8765458 -3.040117 -0.83767265 0.11346662 0.6652112 1.4996452

bias f4 [64]
00000000: 9c1d 623f f018 7ebf b0d2 263f 9a89 373f
00000010: ddfb b03e ca18 773f 22ef 81bd 3f23 c63d
00000020: b788 60bd 7ee7 e9bd 8d3d 823e 7731 4fbf
00000030: ebd2 493f baa9 ffbd e5c8 593e c96c 223e
00000040: 2587 bb3e 02c7 06be 7ffb 30bd dba5 043f
00000050: 4168 63be 13d9 ec3e e5a8 1f3f 7de4 4fbe
00000060: 4b47 efbe b3df a7bc 5cb5 d83d d25f 2dbe
00000070: c3b3 3fbe 9bf8 87be 9b26 a23c f786 293d
00000080: 0a49 d33b 4317 21bc ee16 47bf deb1 14bf
00000090: 8797 c9be 6896 2bbf 3736 0bbe b59f 54bf
000000a0: 19a7 7cbf 85f3 aebc a115 5b3f fbe9 6fbe
000000b0: 98be e1be bdb7 b3bf 922e 4b3f abee e43e
000000c0: 32ca 00bf fba0 e6be 576d b53d 0011 07bf
000000d0: 2d59 163f df98 6fbf 58b8 27bf 17de 883e
000000e0: e16d 8f3d c5d1 383f 3752 c6bf 4499 4d3f
000000f0: db6b 8b3d 2ac1 c33e 7b9b 49be d179 bdbe
0.8832643 -0.992568 0.65165234 0.7169434 0.34567156 0.965222 -0.06344439 0.096746914
-0.05481788 -0.11421107 0.25437585 -0.8093485 0.7883746 -0.12483545 0.21268041 0.1586181
0.36626545 -0.13161853 -0.043208595 0.51815575 -0.22207738 0.46259364 0.6236709 -0.20302005
-0.4673408 -0.02049241 0.105814666 -0.16931084 -0.18720917 -0.26556858 0.0197938 0.041388478
0.006447916 -0.009832206 -0.7776936 -0.58083904 -0.3937342 -0.67026377 -0.135949 -0.83056194
-0.9869247 -0.021356354 0.8557988 -0.234291 -0.44090724 -1.4040447 0.79367936 0.4471334
-0.50308526 -0.45044693 0.088587455 -0.52760315 0.5872982 -0.9359264 -0.6551566 0.2673194
0.070033796 0.7219508 -1.549384 0.8031199 0.06807681 0.3823331 -0.19688217 -0.37007

weight f4 [2, 64]
00000000: e056 1e3e c46f 40be 7b8a e73e feeb 883f
00000010: 3c7e 0b3f bef2 2d3f 99f6 80be 1212 7cbf
00000020: b5cf 1d3f 25b5 1b3f d60f dd3f f813 0dbf
00000030: 5666 f33e a352 d0bf d62c 8a3e 3a46 47bf
00000040: 934b a9bf 38df 7d3f 5004 3dbf c9bb 70be
00000050: 2593 17bf 7a69 22be 2fd0 a7be 074c 4ebf
00000060: 9ee2 37bf 37b2 9c3e c08c 22bf 3cc5 82bf
00000070: 32be 9e3f 0287 43bf b450 723f 2015 89be
00000080: d4f0 c8bf 4ce3 e43d 5c7d 9fbf 3b8e 783f
00000090: 875c debe 4f28 123f f605 52bf 7edd 45bf
000000a0: e2d5 4abf fbdc 2a3f cc05 db3e a282 a93f
000000b0: 829e 4dbf 4b0e ed3e 9ec2 3c3f 7aa4 233f
000000c0: 4a75 cebe 8070 1dbf c1c0 b33f 5c07 17bf
000000d0: 1000 503e 2cc2 e2be 8b54 30bf e8bf 403f
000000e0: 7fb0 b73e ccd0 0e3f 0bfc 46bf d217 893f
000000f0: 1a82 b4be ea5b ca3e fc81 06bf 1a20 76bf
00000100: c78a 79be b1b7 5e3e 89ae 75be db71 67bf
00000110: 943b 0ebf 268d 04bf eb98 4f3e 3551 783f
00000120: 7922 1dbf d126 40bf a1c4 d8bf 243b 1c3f
00000130: b0c6 cabe 1bca d23f 162b 89be dbf3 3f3f
00000140: 6e71 bd3f 93e1 86bf 9e83 5b3f be99 1a3d
00000150: 6cdb 243f 8e7b 883b cf52 d13e d296 743f
00000160: f40e 5e3f cd49 89be 4434 5c3f beb7 8a3f
00000170: 09c7 9dbf 35b7 1c3f 9cf8 48bf a4db 883e
00000180: 1598 cd3f 23cd 1cbe 725c 873f 77b5 64bf
00000190: fc87 a33e 3b94 28bf 5302 4a3f 72e3 503f
000001a0: 17bf 163f 37fe 2dbf 3b95 bebe 15c5 9bbf
000001b0: 1638 1b3f 071e fdbe 4eb7 41bf cf1e 06bf
000001c0: 4719 b73e bfa2 463f e317 9cbf ff6b ed3e
000001d0: e4a6 7bbe 4680 143f fe80 4a3f 2ee2 36bf
000001e0: 2b56 0abf 2595 ecbe ab4e 513f 444f 6ebf
000001f0: 8cde 283e b7aa 0bbf adf0 0c3f 0f79 843f
0.15462828 -0.18792635 0.4522284 1.0697019 0.54489493 0.6794852 -0.2518814 -0.98465073
0.6164506 0.6082328 1.7270458 -0.55108595 0.47539014 -1.6275219 0.26987332 -0.7784153
-1.3226188 0.9916873 -0.73834705 -0.23509134 -0.592089 -0.15860549 -0.3277602 -0.8058476
-0.71830165 0.30604717 -0.6349602 -1.0216441 1.2401793 -0.7637788 0.94654393 -0.2677393
-1.5698495 0.11176166 -1.2460132 0.97092026 -0.43429968 0.57092756 -0.82040346 -0.77291095
-0.7923261 0.6674344 0.4277786 1.3242991 -0.8031999 0.46299967 0.7373446 0.63922846
-0.4032386 -0.61499786 1.4043199 -0.58995605 0.20312524 -0.44288766 -0.68879 0.75292826
0.35876843 0.5578735 -0.7772834 1.0710394 -0.3525551 0.3952325 -0.5254209 -0.96142733
-0.24369346 0.2174976 -0.23992361 -0.90408105 -0.5555966 -0.51777875 0.20273177 0.9699891
-0.61380726 -0.7505923 -1.6935006 0.6102774 -0.39604712 1.6467928 -0.26790684 0.7498147
1.4800241 -1.053759 0.85747707 0.037744276 0.6439731 0.0041651195 0.4088349 0.95542634
0.86741567 -0.26814118 0.8601725 1.0837324 -1.2326366 0.6121705 -0.7850435 0.26730072
1.6062037 -0.15312628 1.0575087 -0.89339393 0.31939685 -0.6585118 0.78909796 0.81597054
0.5888533 -0.67966026 -0.3722323 -1.216952 0.60632455 -0.49436972 -0.75670326 -0.5239076
0.35761473 0.7759208 -1.219479 0.46371457 -0.24575382 0.5800823 0.79103076 -0.7143887
-0.5403773 -0.46207538 0.8176066 -0.930897 0.16491145 -0.54557365 0.5505474 1.0349444

bias f4 [2]
00000000: 259b ac3f 006a 95bf
1.3484846 -1.1672974
