models/gaussian_nn_torch.pt (torch, 18402 bytes, 4 tensors)

weight f4 [64, 30]
000000 80 a7 c0 3e e1 90 3a be 93 ca 91 bd fa a4 16 3e
       0.37627792 -0.1821933 -0.07118716 0.14711371
000010 a2 f6 0a 3c f3 21 7c 3d cc 06 e2 bd 5a c6 91 3d
       0.008481653 0.061555814 -0.11036453 0.07117911
000020 b4 6e 91 be 89 ea f4 3e f0 da b3 be 22 7e f8 3d
       -0.28404772 0.47835186 -0.35127974 0.12133433
000030 c8 83 5d 3c 02 75 dd 3e c1 37 31 3e 82 0d 8f be
       0.013520189 0.43253332 0.17306425 -0.27939993
000040 a2 97 88 3d 49 64 9d be ff 6a 15 bd 5e 73 2c be
       0.06669547 -0.30740574 -0.036478993 -0.16840884
000050 ef 44 e6 3e fc 64 07 bf c0 40 1f be 9d 5d 2b be
       0.44974467 -0.52888465 -0.15552044 -0.1673493
000060 ba 7b 24 be 9f 61 38 3e 17 c1 ee 3d 01 5f 25 3d
       -0.16062823 0.1800599 0.11657923 0.040373806
000070 09 27 9e 3e 1c 18 40 3e 28 ad b0 3c 46 9e 8c 3d
       0.30889156 0.18759197 0.021566942 0.06866126
000080 0f 33 24 3e 51 a7 e4 3e 7e e4 a8 be ad ef 10 3e
       0.16035102 0.44658902 -0.32986826 0.14153929
000090 50 42 44 3e be 53 de 3e a7 11 fa bd fe 37 28 3e
       0.19165921 0.43423265 -0.12210398 0.1642761
0000a0 20 97 2e be 56 84 b0 3d 54 6f 7b be 06 9c 25 bd
       -0.17049837 0.08618991 -0.24554187 -0.040432
0000b0 cb 51 b6 3e 58 40 bc 3d f2 a1 8e be c7 b6 40 3c
       0.35609278 0.0919196 -0.2785793 0.0117623275
0000c0 5d ae 78 bd cf 8b 0c be dc a2 b7 3e 52 ca db be
       -0.06071316 -0.13725208 0.3586644 -0.42927796
0000d0 8e d3 39 be 46 1f c8 3d b3 03 35 be 3c 2b 92 3d
       -0.18147108 0.0977159 -0.17677192 0.071371526
0000e0 f4 f4 16 3e 5d 6a 63 be 0b a9 84 be e3 1c 39 3d
       0.1474188 -0.22208543 -0.2591022 0.045193564
0000f0 ee eb 16 3f a3 25 5b 3e b0 e1 bb bf 45 ed 18 3f
       0.5895375 0.21401076 -1.4678249 0.59737045
000100 63 38 fc 3e 75 6d 3e bf 22 41 38 be 0d 25 5f be
       0.4926177 -0.7438577 -0.17993596 -0.21791478
000110 9f ac 6f 3d ce 68 00 bf fd e4 83 bf b6 4a 88 3d
       0.058514234 -0.5015992 -1.0304257 0.06654875
000120 e7 d3 f0 3e c2 a3 54 3f 46 15 76 be eb 7e 2a 3e
       0.4703667 0.83062375 -0.24031553 0.16649978
000130 73 50 df 3d 83 0b 18 3f 91 97 bc 3d 78 d7 a9 3e
       0.10904016 0.59392565 0.092085965 0.33172202
000140 7e 16 46 3e 50 68 9d 3e 77 54 07 3f 91 db 86 bf
       0.19344518 0.30743647 0.5286326 -1.0535756
000150 22 05 29 bf 1c c2 2b bf a9 62 2b bf ce c8 48 3f
       -0.6602346 -0.6709306 -0.6694742 0.78431404
000160 ff 29 98 3e fc 1b b3 3f 56 5c 3c bf 57 7a 79 3e
       0.2971954 1.3992915 -0.73578393 0.24363075
000170 43 d7 95 be d3 c1 29 3f cd 0c 69 be 03 c5 37 3f
       -0.29265794 0.6631138 -0.2275879 0.7178499
000180 cd 34 d1 be 43 7d 34 bd 04 ec 66 bf 03 5b 60 be
       -0.40860596 -0.04406477 -0.9020388 -0.21909718
000190 01 0d 5a bf eb 47 e7 3d 2e 47 4e be bf 1d 9f 3b
       -0.8517609 0.11293014 -0.2014434 0.004855841
0001a0 c7 e3 72 be 7e 5c d2 be 85 4d 75 be b4 28 c1 be
       -0.23719703 -0.4108619 -0.23955353 -0.37726367
0001b0 98 72 20 bd c5 19 1c 3f d9 46 8f 3b d8 99 e6 3d
       -0.039171785 0.6097682 0.0043724594 0.11259812
0001c0 de 86 03 be 5a df 98 be 17 c9 d0 be 8e b9 d6 be
       -0.12844416 -0.29857904 -0.4077842 -0.41938442
0001d0 8e cf 2a bf 86 fa b4 be 16 bb 1d 3f 72 a0 dd 3e
       -0.66722953 -0.35347384 0.61613595 0.43286473
0001e0 33 cb 7e 3e 1b 51 eb 3e 3d 49 2b 3f a4 ba 52 3f
       0.24882202 0.45960316 0.6690863 0.8231604
0001f0 98 b3 40 3e ae 8c a5 3f b4 0c 39 3f af a7 be 3e
       0.1881851 1.2933557 0.7228501 0.37237307
000200 10 df 6a bf 8d bf 06 3f 0d 57 34 3f 11 1e 3c 3f
       -0.91746616 0.52636033 0.7044533 0.7348338
000210 1f f2 95 be cc b8 68 be 89 8a ac 3e 97 b5 44 be
       -0.29286286 -0.22726744 0.33699444 -0.19209896
000220 b8 6a 26 bf 0e 91 9c bf 0c bf 3e bd b3 19 97 3e
       -0.6500659 -1.2231767 -0.046568915 0.29511794
000230 88 58 f0 3e 17 4f a3 be 82 10 3c be 7d c6 85 be
       0.46942544 -0.31896278 -0.18365672 -0.26127997
000240 3d 14 4c be ba 8b a0 3e 07 36 19 3e 9e a7 8f be
       -0.19929595 0.31356603 0.14962016 -0.2805757
000250 df ad 80 bd 94 c9 59 be c8 d3 d7 be 08 58 65 3f
       -0.06283163 -0.21268302 -0.42153764 0.8958745
000260 97 3b c1 3d 2a 2e 5a be 17 ad 01 be 20 e2 4b be
       0.09435194 -0.21306673 -0.12663685 -0.19910479
000270 48 e8 7a be 1b be f0 3e 9f 86 8d 3e 5f 9e ac be
       -0.24502671 0.4702004 0.2764177 -0.33714578
000280 89 af a1 3e 3d 22 04 bf cd a2 92 3e ae 6e 79 bf
       0.31579235 -0.51614743 0.28639832 -0.9743451
000290 c2 63 5f 3f e5 e4 d2 3f 16 8e 1e 3f 43 ba b9 be
       0.87261593 1.6476103 0.61935556 -0.3627492
0002a0 0f 71 39 bf ac 1f eb 3e a3 84 0b 3f b5 5f 38 3e
       -0.7243814 0.459226 0.5449926 0.1800526
0002b0 d8 e2 72 3d a5 f5 28 3f 94 89 dc be 36 5b 8c 3e
       0.059298366 0.65999824 -0.43073714 0.27413338
0002c0 c2 d8 a4 be 16 7a a1 be 7b 80 2f 3e cb 30 48 be
       -0.32196623 -0.31538457 0.17138855 -0.19549863
0002d0 ff 7a 59 3e 12 f7 40 bf 1a 49 84 3e 99 82 37 3f
       0.21238326 -0.75377 0.25837022 0.7168365
0002e0 7c 37 14 be 91 dc 84 3f 89 6a f3 be 11 75 a2 bd
       -0.1447429 1.0379812 -0.47542217 -0.07932485
0002f0 ad a0 dd be 8a 52 99 3f 19 c6 9d be ff d7 32 bf
       -0.43286648 1.1978314 -0.308152 -0.69860834
000300 01 1b 30 3d 40 9b 8d 3c 83 84 74 bf bc c0 91 bf
       0.042994503 0.017285943 -0.95514697 -1.1386943
000310 06 b4 68 bf de 73 87 3e 63 52 3a 3f 10 4e 0a 3e
       -0.90899694 0.26455587 0.7278196 0.13506341
000320 a0 72 1f be 77 e9 72 3e 85 ef 17 bf 1d 16 d4 be
       -0.1557107 0.23721872 -0.5934985 -0.4142312
000330 29 16 b0 3e a3 47 76 3d 8b 33 bc 3e f5 dd 06 bd
       0.34391907 0.06012691 0.36758074 -0.03292652
000340 5f 58 b2 3e 93 b9 c7 be 6c 4f 1b 3e 67 1b 36 bf
       0.34833047 -0.3900877 0.15167016 -0.7113556
000350 f2 3d 11 be e4 37 d6 3e 2d 34 80 3e b8 d4 17 be
       -0.14183787 0.41839516 0.25039807 -0.1482724
000360 a8 ff 9f 3d cb bf 98 3e 5c 61 33 3f d1 c7 bb be
       0.078124344 0.29833826 0.70070434 -0.36675885
000370 66 f3 1f bf 08 69 f1 bd 59 97 fb 3b f1 46 b3 bf
       -0.6248077 -0.11787611 0.007677954 -1.4006025
000380 33 30 7f bd f3 16 5b 3f ef b0 1b bf 7f f1 82 be
       -0.062301826 0.8558189 -0.60816854 -0.25574872
000390 41 ed 96 3f cb c9 2a bf 26 3b 1f be ef 1a 26 3f
       1.1791154 -0.6671416 -0.15549907 0.6488485
0003a0 4b 57 c0 be 67 f8 3e bd 2e 94 27 3f d3 71 d9 3e
       -0.375666 -0.046623614 0.6546048 0.42469653
0003b0 d8 74 2f 3f fa 16 c0 3f 09 c9 c9 3e 5f cb 8e bf
       0.68537664 1.5007012 0.3941119 -1.1155814
0003c0 49 ec 2e 3e ff 50 9a 3b f8 44 81 3f 94 e3 11 3e
       0.17082323 0.0047093625 1.0099173 0.1424697
0003d0 3c 77 d4 bb 49 ac 3b bf 70 cf 3b bf 9c b1 72 bf
       -0.0064839404 -0.7330976 -0.733634 -0.9480226
0003e0 ea 8f 46 3f 1e f5 18 bf 2e 23 13 3e bd ec 6f be
       0.77563345 -0.5974902 0.14368889 -0.23430152
0003f0 17 b8 2f 3e 52 2d 0a bf 0f 4c e6 3f 78 c4 e7 3e
       0.17160068 -0.53975403 1.7991961 0.4526708

bias f4 [64]
000000 f0 6f 3a 40 a2 e5 48 40 c2 78 1b bf cf b2 5f c0
       2.9130821 3.1390157 -0.60731137 -3.4952886
000010 d2 d2 62 c0 52 4a 3e 40 24 01 24 c0 28 27 42 40
       -3.5441175 2.9732862 -2.5625696 3.03364
000020 43 7f 03 40 4f bd 19 40 58 5e 07 40 9f 8f f6 bf
       2.0546424 2.4021795 2.1151333 -1.926258
000030 78 05 26 c0 2d fe 5b c0 93 f3 82 bf 54 2e 58 bf
       -2.5940838 -3.4373887 -1.0230583 -0.8444569
000040 e8 e9 1e c0 32 79 6e bf 68 06 27 40 0e 1c d5 bf
       -2.4830265 -0.9315368 2.609766 -1.6649187
000050 e9 de 55 40 de 49 1b 40 b3 9a 70 3f d4 27 7c 40
       3.3417304 2.4263835 0.9398605 3.939931
000060 3b f2 14 c0 ff 97 8d 3f ca 48 6f c0 9c fb 48 40
       -2.3272846 1.106201 -3.7388177 3.140357
000070 1b 40 1d c0 1d d0 8f 3f 82 75 13 40 69 d5 11 c0
       -2.4570377 1.1235386 2.304047 -2.2786505
000080 fb e0 40 40 81 5a 93 40 07 c0 59 40 f8 6f 64 c0
       3.0137317 4.604798 3.4023454 -3.569334
000090 92 4e 27 40 59 6f 6b 3f 22 7b 56 c0 a9 e1 70 40
       2.6141706 0.9196678 -3.3512654 3.7637732
0000a0 55 e9 47 c0 1e 50 0d c0 6e 48 4b c0 2e 4e 63 bf
       -3.1236165 -2.208015 -3.1762958 -0.8879117
0000b0 a8 c9 5f c0 21 67 25 40 c8 01 64 bf 95 21 60 c0
       -3.4966831 2.5844195 -0.8906522 -3.5020497
0000c0 36 df 3c 40 af 36 79 40 96 41 ed 3f a2 0e 37 c0
       2.9511237 3.8939626 1.853564 -2.860268
0000d0 57 92 4b 3f 78 9a 75 40 63 57 f2 bf c7 d2 c5 3f
       0.7952017 3.837553 -1.8932918 1.5454949
0000e0 bc 67 3b c0 75 00 35 c0 23 37 50 40 2b 41 2e 40
       -2.9282064 -2.828153 3.2533653 2.7227275
0000f0 33 6c 7d bf e8 89 9e 3f be 6c ce 3f 1e 47 ab bf
       -0.98993224 1.2385836 1.6126935 -1.3381078

weight f4 [2, 64]
000000 90 c3 cc 3e 2a aa 29 3f c6 63 52 bc 95 55 69 bf
       0.39992952 0.66275275 -0.012841171 -0.9114621
000010 d7 97 b9 bf ff cf 2f 3f 71 ca 3b bf 1c 99 e8 3e
       -1.4499463 0.6867675 -0.73355776 0.45429313
000020 29 17 1a 3f 50 29 f9 3e f8 53 e3 3e 73 cc ff be
       0.6019159 0.4866433 0.444 -0.4996067
000030 f7 66 3e be 22 59 7b bf 8d f5 26 bf eb 4e 31 bf
       -0.18593965 -0.9818288 -0.6521843 -0.69261044
000040 26 63 52 bf 46 d8 3b bf 1d 28 06 3f 3b 8b 5c bf
       -0.8218254 -0.7337688 0.5240496 -0.8614995
000050 ed 99 80 3f d9 2a 4f 3f 2e 60 e2 3e b5 e5 d7 3f
       1.0046974 0.80924755 0.44214004 1.6866976
000060 36 80 5f bf d7 39 1c 3f 78 d1 7c bf db 81 1e 3f
       -0.8730501 0.61025757 -0.98757124 0.61916894
000070 2b 6e 3a bf 25 e9 4d 3f ba 75 3e 3f 21 7d 05 bf
       -0.7282435 0.80433875 0.74398386 -0.52144057
000080 9c 71 9a 3f c8 59 d7 3f 1a 11 21 3f cc fd a6 bf
       1.2065921 1.6824274 0.6291672 -1.3046203
000090 16 80 c4 3f d8 43 00 3f b4 90 7a bf 69 10 12 3f
       1.5351589 0.5010352 -0.9787705 0.5705629
0000a0 ea 27 53 bf 1b 4b 46 be bb 91 89 bf 0b 2c e1 be
       -0.8248278 -0.19364588 -1.0747598 -0.43978915
0000b0 81 2f a7 bf 16 a7 0f 3e 8c 9a a9 be 58 55 82 bf
       -1.3061372 0.14028582 -0.33125722 -1.0182295
0000c0 65 7f a2 3f ec 26 77 3f d1 ef e0 3e 14 0b 7f bf
       1.2695128 0.96543765 0.43932965 -0.9962628
0000d0 ce 8e 1e 3e b8 87 86 3f 4d 16 34 bf 6e 60 bb 3c
       0.15484163 1.0510168 -0.7034653 0.02287313
0000e0 e0 1c 3f be 36 4b 10 be e1 a9 fd 3e ec 46 35 3f
       -0.18663359 -0.1409119 0.4954367 0.70811343
0000f0 d4 ae 0e bf 20 ed 4e 3e 9c d8 cd 3e 60 88 5d bf
       -0.55735517 0.20207644 0.40204322 -0.86536217
000100 6c b4 e8 be 7a 4a 16 bf 38 7d a5 bc da 95 5d 3f
       -0.4545015 -0.5870739 -0.02020131 0.8655678
000110 b2 b0 c0 3f ae ae 19 bf ba 79 52 3f 77 4e c8 be
       1.5053923 -0.60032165 0.8221699 -0.39122364
000120 ea 07 12 bf e6 2e d0 be 42 40 96 be a7 ae c9 3e
       -0.57043326 -0.4066078 -0.293459 0.39391062
000130 ff 89 bb 3e 96 da 86 3f f1 8a e5 3e 3c a1 43 3f
       0.3662872 1.0535457 0.44832566 0.764179
000140 1d 0b 72 3f 01 ef 2e 3f 65 b6 f5 be 51 01 54 3f
       0.9454821 0.6833344 -0.47990718 0.8281451
000150 4e ee 6d bf d0 52 3d bf d3 ce 0d bf c0 91 d0 bf
       -0.9294175 -0.73954487 -0.55393714 -1.6294479
000160 9d 37 76 3f f4 99 35 bf 00 b6 6f 3f e7 e8 21 bf
       0.9617861 -0.7093804 0.93637085 -0.63246006
000170 66 2f 21 3f e7 7a 38 bf 01 97 1f bf 9f 57 fa 3e
       0.6296295 -0.72062534 -0.6233979 0.48894975
000180 e9 b9 9d bf 2d 83 e3 bf 34 ad 03 bf 38 5b ab 3f
       -1.232236 -1.7774407 -0.5143616 1.3387213
000190 24 d0 c5 bf 90 2f e7 be b4 2d 80 3f e2 aa 35 bf
       -1.5454144 -0.45153475 1.0013947 -0.7096387
0001a0 12 03 2f 3f bb 36 53 3e 15 a5 6b 3f fc 0e fc 3e
       0.6836406 0.20626347 0.9204877 0.49230182
0001b0 fc c4 b1 3f 31 16 2a be 68 e4 e9 3e f3 9f 7e 3f
       1.388824 -0.16610028 0.45682073 0.99462813
0001c0 1d 1f bc bf 2e 32 46 bf be 87 63 be 9b 85 79 3f
       -1.4696995 -0.7742032 -0.2221975 0.9746949
0001d0 31 df 4b bc 8a 66 95 bf 1f 46 2a 3f c6 3b cb bc
       -0.01244335 -1.1671917 0.66513246 -0.024808776
0001e0 f4 96 ab 3e d2 40 a7 3d cb 75 3a bf b2 c5 10 bf
       0.33513606 0.0816666 -0.7283599 -0.5655166
0001f0 e4 ad 18 3f 42 96 cc be c6 e7 e7 be 2c 41 5a 3f
       0.59640336 -0.39958388 -0.45294017 0.85255694

bias f4 [2]
000000 a2 06 c6 3f 7a 7c b7 bf
       1.5470774 -1.4334862
