models/gaussian_nn_torch.pt (torch, 18402 bytes, 4 tensors)

weight f4 [64, 30]
00000000: 5771 bdbe 21e8 c1be a278 0bbf f307 513e
00000010: 121f a0be 57ec cb3f 3aaa db3e d296 303f
00000020: ba5e babf 1ae2 ce3d 9b78 8dbe 21a4 333f
00000030: b9ac 9dbf e394 e93e 4f24 063f 1152 16bf
00000040: d2f6 69bf 4d2a 7ebd be34 533f 747d 843e
00000050: 0157 aa3e eb42 a9bf ffe8 45bf c96f 543d
00000060: ab23 cdbe e7a1 24bd 16c6 89bc fbff dd3d
00000070: 41db 513e 0b38 113f c87b 1abf e903 c4bf
00000080: dd83 a63f 0c91 783f f890 893f 402b 6cbe
00000090: ceeb d3be d09e 1f3e ed4d ee3f f30a 3b3f
000000a0: c027 cd3e 679f 003f a9c3 0540 3d53 8b3f
000000b0: e21f d13e a438 543f dbdb 01bf 52ed ecbf
000000c0: e23b f73e 1bfa 56bf 1f50 7dbe 8278 0740
000000d0: b8c0 073f 7af0 333e 4b67 963f fa06 d03d
000000e0: af43 32bf 75ad d6be 0bef 293f 2a35 37bf
000000f0: 9f6d ecbe 0de8 88be d3a6 bdbe db6e 303f
00000100: 3703 31bf 64b5 d83f 2bcb ed39 2170 953e
00000110: e0c6 bbbf ba2f 383f ede9 64bf 4357 da3e
00000120: 322b 8dbf d1c3 ab3e 8176 74be 9f6a 4cbf
00000130: 8661 1dbf 180b aa3e 9534 ff3e 2f7c 2b3e
00000140: edd9 153f 067c 5fbf 8448 10bf 72a9 57ba
00000150: 2d75 03bf 7896 49be 207b b03e c15a a6be
00000160: 7fdb 6c3e db8c d43d 7a3f ad3e eb4a fa3e
00000170: 0d10 103f a3ac 4bbe 6ca2 743e 4418 b5bf
00000180: 858c 06bf a001 4bbf dbfd 853f b04c 5abe
00000190: 9c81 a53e acb4 fbbe 70c5 9b3f cf08 fdbe
000001a0: 28bf a4be 8b72 b33e 286f 663f 31a7 683e
000001b0: f7ff 11bf 2135 16be 28d2 c1be 9aea 833f
000001c0: eea2 2c3f 971a 54be 8661 54be 06cb e5be
000001d0: 87b7 d7bc eb9b 35bc f1c7 08bd be99 3fbf
000001e0: 078a 82bf 41c7 79bf 6998 fe3d 99f1 40bf
000001f0: 548f 1d3f e003 88bf 9f78 053f 5aa4 a2be
00000200: 9f0d 883f 2c1a 33bf 850f 493f 00b1 4dbd
00000210: e0b4 f63e 4958 f9bf 2a7e b5bf 7c34 753f
00000220: f0bd bdbf 8d0f 273f 8eb4 88bf 0b84 383f
00000230: 1c15 4d3f ff04 a8be d169 c23e da98 5fbe
00000240: 4ae9 993f 7228 393f e9ea 783f a798 54be
00000250: b9fa 32bf a34c c6be 04de 61bf 28ae 74be
00000260: 7863 5bbe 80d4 a83f 86f3 b63e 8360 eb3f
00000270: b8f9 c33f 250c 663f 4514 7ebe 689b 07bf
00000280: e718 9bbe 291d 0bbf 5b00 9cbd a207 9ebd
00000290: 12e5 51bf f5c7 ee3e b112 dbbf d1a8 05bf
000002a0: aeb4 8b3f 1405 d43c 5222 4c3f 24e9 8bbf
000002b0: bc98 5e3f ef29 93bf cb1b 80be bf61 c73f
000002c0: fcb5 013f e1f1 0c3f 4194 0c3f a82f 0f3f
000002d0: 0a54 fbbd 49ed eabe 2fe1 6540 727b 3ebf
000002e0: e936 393e e8df ac3e 897c 4bbf 942e 04c0
000002f0: 5f17 96be e696 99bf 671c 8b3f d012 c73e
00000300: ecc9 033f 207b 5bbf 2e7b b5bf 9b5d fe3e
00000310: e162 243e b760 1b3e fec3 07bf c41e babf
00000320: 1701 403e 28ec 8abf 89fd 31bd 169b c93e
00000330: 99c4 9cbf 7850 fe3c 211d 943e a3fd a73f
00000340: 788f c6be d88e df3f c854 653d 8cbb 133f
00000350: fa88 dcbe 651f e7bf 2431 36bf 6f7d 14bf
00000360: df54 d53f 2403 49bf 0239 ab3f c118 72be
00000370: 78a9 ea3e 1e76 853f 7b4f 8b3f fbc9 41bf
00000380: f636 07be 267c 853f ead9 61bf 6cd0 b2bf
00000390: e189 b43e 84fb eabf f2d1 dabd 386d 833e
000003a0: c825 f63e f77b a5bf 7994 003f 17af 5ebd
000003b0: b888 74bd 71a5 a6be 9f37 0cbf caf9 d0bf
000003c0: 724c 8e3e fd4a 3ebe 65ff 6abe c5b0 293f
000003d0: f950 113f f8a8 9cbf 1d50 ccbe a686 98bf
000003e0: 1981 303e caf2 bdbf fdbb 8c3e 4714 10c0
000003f0: 63b8 993e c8d3 793f f1e6 73bf 19e5 bebd
-0.37000534 -0.37872413 -0.54480946 0.20413189 -0.31273705 1.59315 0.4290331 0.68980134
-1.4560158 0.10101719 -0.27631077 0.70172316 -1.2318336 0.45621404 0.5239915 -0.58718973
-0.9139224 -0.06205206 0.82502353 0.25876963 0.33269504 -1.3223547 -0.7730865 0.05186442
-0.40066275 -0.040193465 -0.016818088 0.1083984 0.20493795 0.5672614 -0.60345125 -1.5313693
1.3008991 0.97096324 1.0747366 -0.23063374 -0.41390842 0.15587926 1.8617531 0.7306358
0.4006939 0.5024323 2.0900671 1.0884777 0.40844637 0.82898927 -0.507261 -1.8509924
0.48287874 -0.8397538 -0.24737595 2.1167302 0.5302844 0.17572203 1.1750273 0.10157581
-0.69634527 -0.41929212 0.66380376 -0.71565497 -0.46177384 -0.2673954 -0.3704134 0.6891915
-0.6914553 1.6930356 0.00045355535 0.2918711 -1.4670067 0.71947825 -0.8941944 0.426447
-1.1028807 0.33547834 -0.2387333 -0.7985019 -0.61476934 0.3321159 0.49844804 0.16746591
0.58535653 -0.8729862 -0.5636065 -0.00082268484 -0.5135067 -0.19686306 0.34468937 -0.32491115
0.23130606 0.103784285 0.3383749 0.48885283 0.5627449 -0.19890074 0.23890084 -1.414803
-0.52558166 -0.79299355 1.0468096 -0.21318316 0.32325447 -0.4916128 1.2169628 -0.49420783
-0.3217709 0.35048327 0.9001336 0.22720028 -0.57031196 -0.14668705 -0.3785565 1.030597
0.6743611 -0.20713268 -0.20740327 -0.44881457 -0.02633263 -0.011084537 -0.033393804 -0.74843967
-1.0198373 -0.9756966 0.12431414 -0.7536865 0.61546826 -1.0626183 0.5213718 -0.31766015
1.0629157 -0.6996181 0.78539306 -0.05021763 0.48184872 -1.9480067 -1.4179127 0.9578321
-1.4823589 0.65258104 -1.0680101 0.7207648 0.80110335 -0.32816312 0.37971357 -0.21835652
1.2024319 0.7232734 0.97233444 -0.20761357 -0.6991382 -0.38730344 -0.88229394 -0.2389456
-0.21424663 1.318985 0.3573267 1.8388828 1.5310583 0.8986228 -0.2481242 -0.52971506
-0.30292436 -0.5434137 -0.07617255 -0.077162996 -0.8199016 0.4663693 -1.7115079 -0.5221072
1.0914514 0.025881328 0.7973987 -1.0930524 0.86951804 -1.1497172 -0.25021204 1.5576705
0.5066831 0.5505658 0.5491372 0.5593209 -0.122718886 -0.4588416 3.591869 -0.7440711
0.18087353 0.33764577 -0.794869 -2.065343 -0.29314706 -1.1999176 1.0868043 0.3888154
0.51479983 -0.8573475 -1.4178216 0.4968079 0.16053344 0.15173613 -0.53033435 -1.4540639
0.18750416 -1.0853319 -0.04345468 0.39376134 -1.2247497 0.03104423 0.28928474 1.3124279
-0.38781333 1.7465467 0.055989057 0.5770805 -0.43073255 -1.8056456 -0.7116873 -0.58003896
1.6666526 -0.7852042 1.3376772 -0.23642255 0.4583242 1.0426672 1.088363 -0.7569882
-0.1320456 1.0428512 -0.88223135 -1.3969855 0.35261443 -1.8358006 -0.10684575 0.25669265
0.480757 -1.2928456 0.5022655 -0.054366197 -0.059700698 -0.32548097 -0.5477237 -1.632623
0.27792698 -0.18583293 -0.22948988 0.66285354 0.5676418 -1.2239065 -0.39904872 -1.1916091
0.17236747 -1.4839718 0.27487174 -2.2512376 0.30023488 0.9758878 -0.95274264 -0.09321041

bias f4 [64]
00000000: 84e2 ec3f 253f 8640 581f ba3f 4699 babf
00000010: 2a93 9a40 7abe b0c0 4474 9140 6e2e 9940
00000020: fa60 8440 3530 a440 5631 fcbf dded 7ec0
00000030: a9c2 d2bf f03b ba40 f06b d940 e56b 8fc0
00000040: 583f c6c0 7e0e af40 8ee2 dd40 70ad d7bf
00000050: 821c b340 acec 8d40 57a1 0740 c2b7 87c0
00000060: 9ec4 c9c0 12f3 eabf b6df 2240 3fec 44c0
00000070: 267e d93f 005e aec0 8c71 bdc0 3fa7 8340
00000080: d249 b140 0792 cc40 141f c73f 4679 9540
00000090: 20d2 f73f 58a3 c940 6079 fcbf 0c9f b640
000000a0: 0622 90c0 65c4 8740 0d38 9c40 4865 92c0
000000b0: e606 5e40 df4c 97c0 c237 9240 4ba4 a140
000000c0: a9f3 ba40 5d36 b1c0 32aa a140 3e98 51c0
000000d0: befa 733f 221c bac0 61ee 38c0 3a59 96c0
000000e0: 6be6 bf40 639c 20c0 38c7 3840 aa3c 02c0
000000f0: b5ea 8840 d4b2 f4bf 224c 27c0 1f54 f7bf
1.8506627 4.195208 1.4540815 -1.4578025 4.8304644 -5.5232515 4.5454426 4.7869177
4.136838 5.1308846 -1.9702556 -3.983268 -1.6465656 5.8198166 6.794426 -4.4819207
-6.1952324 5.470519 6.9339056 -1.6849804 5.59723 4.4351406 2.1192224 -4.2411814
-6.305251 -1.8355429 2.5449042 -3.0769193 1.6991622 -5.4489746 -5.9201107 4.114166
5.5402613 6.3928256 1.5556359 4.671054 1.9361 6.3011894 -1.9724541 5.706915
-4.5041533 4.242724 4.881842 -4.5748634 3.469171 -4.7281337 4.5693064 5.0513053
5.8422437 -5.537886 5.052026 -3.2749171 0.9530448 -5.815934 -2.8895495 -4.698392
5.996877 -2.509545 2.8871593 -2.0349526 4.2786508 -1.9117074 -2.6140218 -1.9322547

weight f4 [2, 64]
00000000: ce9a 453f 54ef 823f b8da 773f 4fbf 74be
00000010: d096 153f 3449 e3bf 5f56 803f 05aa 0540
00000020: 865d 883f 8db0 eb3f e5f0 c6be f9c1 76bf
00000030: 5119 f0bd 3c06 0840 f8d6 b43f f6b0 61bf
00000040: 6d1f 09c0 0cc1 a63f e672 1440 7cfe 253e
00000050: 9eb7 363f 552c f73f db26 403f 1104 9cbf
00000060: b2e0 febf 1253 9fbe b5d7 773f 4912 3fbf
00000070: 92ac 043f 7c9e e3bf cc7b 06c0 617e 9b3f
00000080: 88a8 9f3f 1a88 4540 c6cb 5d3f 9dcb 953f
00000090: 26d5 a93f b574 b63f 53f3 55bf 6c15 0d40
000000a0: 0ecf 8fbf 69e4 9b3f da22 ed3f d0db 7dbf
000000b0: 7c82 0640 2322 e7bf 82b0 ea3e d0f7 453f
000000c0: 39fe 3740 2a2d 03c0 5245 1b40 731d 67be
000000d0: ea82 4e3f 8b21 bbbe 3c8f 26bf 855a adbf
000000e0: a3f3 e83f 84a3 8bbf dc2d 623f 0c23 5cbf
000000f0: c9c7 ac3f 0227 2fbf 7aa3 69bf fb6b 54bf
00000100: 4dd0 4cbf 68ff 88bf 9892 7abf 9114 453e
00000110: 94b2 05bf 43cd f03f 846e 8abf f6f3 08c0
00000120: 1b2a 88bf b00c fabf abe9 9f3e cc97 813f
00000130: 6545 f73d 7b1c 09c0 0d2d aebf ff66 433f
00000140: 14ea 0740 8685 afbf f772 15c0 a7c7 03be
00000150: 26d4 23bf f8de e4bf c418 21bf 0a31 933f
00000160: d25a 0a40 65c9 ae3e 1c51 80bf a15a 2a3f
00000170: f7ca cabe f411 d63f db3c 0d40 fab6 a6bf
00000180: 72c7 99bf 218e 4ec0 ef57 54bf 4896 adbf
00000190: cbcb c0bf 0691 a0bf 6cd6 2a3f 45f6 04c0
000001a0: fb4b 853f 3b94 90bf b50c 00c0 90ee 893f
000001b0: fc4e 0bc0 2f2f f43f c151 1fbf 23a8 69bf
000001c0: bd02 30c0 fd4e 0240 2aac 25c0 e4d2 383e
000001d0: 0c8e 23bf 1530 c13e babc ec3e efd9 c83f
000001e0: 7486 e9bf 0cf4 963f bd8e 4fbf 6149 6a3f
000001f0: bf0d b8bf 1ea3 0c3f 0576 443f fc48 643f
0.7718934 1.0229287 0.96818113 -0.23901103 0.58433247 -1.7756715 1.0026358 2.0885022
1.0653541 1.8413254 -0.38855663 -0.9638973 -0.11723579 2.1253805 1.4128103 -0.88160646
-2.142543 1.3027663 2.3195128 0.1621036 0.7137393 1.9310404 0.7505929 -1.2188741
-1.9912322 -0.31118065 0.9681352 -0.74637276 0.5182582 -1.778274 -2.101306 1.2147943
1.2473307 3.086432 0.8663906 1.1702763 1.3268173 1.4254366 -0.8357441 2.2044325
-1.1235063 1.217908 1.8526261 -0.9916353 2.1017141 -1.8057293 0.4583779 0.77331257
2.8748915 -2.0496316 2.426106 -0.22569828 0.8066851 -0.3654903 -0.6506231 -1.3543249
1.8199352 -1.0909276 0.88351226 -0.8599098 1.349847 -0.68418896 -0.9126507 -0.82977265
-0.8000534 -1.0702944 -0.97879934 0.19246127 -0.52225614 1.8812641 -1.0814977 -2.1398902
-1.063785 -1.9535122 0.31232962 1.012445 0.12073783 -2.1423633 -1.3607498 0.76329035
2.123662 -1.3712623 -2.335142 -0.1286913 -0.6399559 -1.7880545 -0.62928414 1.149934
2.1617932 0.34138027 -1.0024753 0.6654454 -0.39607975 1.6724229 2.2068393 -1.302459
-1.2013991 -3.2274249 -0.82946676 -1.3561487 -1.5062193 -1.2544258 0.6673343 -2.077531
1.0413812 -1.1295236 -2.0007756 1.0775928 -2.1766958 1.9076899 -0.6223412 -0.9127218
-2.7501671 2.036071 -2.588633 0.18049198 -0.6388862 0.37731996 0.46237737 1.5691508
-1.8244157 1.1793227 -0.81077176 0.9151822 -1.4379195 0.549364 0.76742584 0.89173865

bias f4 [2]
00000000: 23de 2140 feab 1fc0
2.5291831 -2.4948726
