models/nn_torch_gaussian.pt (torch, 18402 bytes, 4 tensors)

weight f4 [64, 30]
0.53739893 -0.3545225 -0.3140542 -0.4190567 -0.2984078 -0.8775088 0.31842488 -0.5871418
0.08983838 -0.084448285 0.050320927 -0.27285597 1.0144022 -0.4268519 -0.018353926 0.658439
0.70449597 -0.35676908 -0.36251858 -0.25874245 -0.15315749 0.971371 0.6966513 -0.27340096
0.009925214 -0.2955924 -0.21508113 0.20346521 0.58542985 0.5043121 -0.025094124 0.41969445
-0.09047851 0.15475571 -0.29179117 1.2134755 0.72463316 -0.2921543 -0.07195779 -0.24049602
-0.68790513 0.35861576 -0.55495 -1.5109425 -0.13775513 -0.083329916 0.6068881 -0.64714766
-0.27098063 0.74702054 -0.14818102 -0.14476255 0.21782753 -0.01985599 -0.04838585 0.3395179
0.19672625 0.50192165 -0.24371237 0.8246226 0.21695071 0.08894776 -0.036081854 -0.05069719
0.1299505 -0.94948226 -0.28085238 -0.42396674 0.19984977 0.7423687 0.44548655 -0.1697553
-0.4619855 -0.3941188 -0.019098071 0.22368333 0.4101697 -0.0030593467 0.5405717 0.116748735
0.044502657 0.39697033 0.16547558 0.12167074 0.4216996 -0.14751765 -0.53278565 0.03190595
-0.5373409 -0.7460245 0.3435681 -0.4581004 0.08866976 0.49597812 -0.13116945 -0.47691044
0.15240997 -0.6498471 -0.13291821 0.19345641 0.37965322 -0.68159384 0.42661458 0.15299182
1.7070066 -0.45160913 -0.4785033 -0.34596533 -1.3061247 -0.3217931 0.20367904 0.17517918
0.4823055 0.3041539 0.16086076 -0.0013205057 0.73956215 0.6493121 0.009769249 -0.028012954
-0.18068625 -0.19725502 -0.060006123 0.34267908 -0.39581305 0.7715573 -0.18876034 0.2301225
-0.6864972 0.295895 -0.49024388 0.24202986 -0.5586176 0.13814038 0.050705176 -0.505712
-0.39916033 -0.05033533 0.24236228 0.083797075 0.24680734 -0.714395 -0.33248818 -0.18511268
-0.17398241 0.15907095 0.2134419 -0.16856574 0.19646943 0.22104086 0.08173465 0.22925313
0.10667296 -0.26373526 0.40815055 -0.65880543 -0.029602151 -0.23377538 0.66829395 -0.37787747
0.4702573 -0.24001653 0.55320007 -0.021403015 -0.04893406 0.4176542 0.36693734 -0.012250934
-0.34739292 -0.12867469 -0.32947278 0.6669505 0.30464384 0.19446795 0.3095482 -0.15940318
-0.34257072 0.18663837 -0.15380181 -0.046506427 -0.48032242 -0.54666734 -0.32017842 -0.024425447
-0.31928772 0.33468103 -0.06918603 0.25304443 -0.67817307 0.13871269 -0.4313296 -0.084027484
-0.88064086 0.26192582 -0.22965781 -0.6969602 -1.2174062 0.11625718 -0.02286501 0.14477839
0.18982574 0.3466797 -1.1031373 -0.4329701 0.5387434 0.25946188 0.25928622 -0.14867353
-0.12558241 0.25712505 -0.061459787 -0.50576377 -0.82511204 0.2990154 0.19864607 0.29745373
0.5988105 -0.22607683 -0.014238189 1.1928272 -1.0366768 0.9284777 0.12676063 0.28126684
0.03733961 -0.3168289 -0.49915 0.43463114 0.7375149 -0.18289192 0.20787017 -0.5014239
-0.05707424 -0.4272196 0.39932287 -0.69399655 -0.1301132 -0.117569596 -0.7245686 0.38813797
0.76699555 -0.050166905 -0.24561545 -0.6161606 0.37774053 0.033736486 0.90309757 0.32382974
-0.35576308 0.8599056 -0.5380263 0.22635776 -0.27262452 0.6199321 0.35981855 -0.87766045
00000000: fa92 093f f983 b5be b6cb a0be 9a8e d6be
00000010: e8c8 98be 6ba4 60bf 9608 a33e ed4e 16bf
00000020: 2ffd b73d 39f3 acbd 511d 4e3d c7b3 8bbe
00000030: eed7 813f 558c dabe f95a 96bc 758f 283f
00000040: d959 343f 70aa b6be 099c b9be e479 84be
00000050: 51d5 1cbe c5ab 783f bd57 323f 36fb 8bbe
00000060: 5d9d 223c e357 97be 3a3e 5cbe 2f59 503e
00000070: bbde 153f 991a 013f 3192 cdbc 31e2 d63e
00000080: cc4c b9bd 4878 1e3e a765 95be 2a53 9b3f
00000090: 8f81 393f 4095 95be 9b5e 93bd 9744 76be
000000a0: 8d1a 30bf 7c9c b73e 3411 0ebf 9066 c1bf
000000b0: ae0f 0dbe e0a8 aabd 055d 1b3f 78ab 25bf
000000c0: f9bd 8abe bd3c 3f3f c4bc 17be a23c 14be
000000d0: 2e0e 5f3e 07a9 a2bc 3e30 46bd 4ad5 ad3e
000000e0: 9b72 493e f07d 003f bc8f 79be 771a 533f
000000f0: 5428 5e3e 3e2a b63d 91ca 13bd dba7 4fbd
00000100: be11 053e 4511 73bf e2cb 8fbe 2b12 d9be
00000110: 6ba5 4c3e e00b 3e3f d016 e43e 55d4 2dbe
00000120: 5d89 ecbe f0c9 c9be 8f73 9cbc 3e0d 653e
00000130: c301 d23e 527f 48bb e862 0a3f f619 ef3d
00000140: 6b48 363d b23f cb3e 6e72 293e 822e f93d
00000150: 03e9 d73e de0e 17be a464 08bf d0af 023d
00000160: 2c8f 09bf 76fb 3ebf 28e8 af3e 238c eabe
00000170: 7e98 b53d d8f0 fd3e 4951 06be 9b2d f4be
00000180: 5c11 1c3e 615c 26bf b61b 08be 7019 463e
00000190: e861 c23e ef7c 2ebf 3a6d da3e e3a9 1c3e
000001a0: 317f da3f 5039 e7be 62fe f4be 5e22 b1be
000001b0: 182f a7bf 11c2 a4be 3d91 503e 2c62 333e
000001c0: bff0 f63e 0fba 9b3e afb8 243e d214 adba
000001d0: f253 3d3f 5139 263f 330f 203c 6c7b e5bc
000001e0: d105 39be 38fd 49be fbc8 75bd a273 af3e
000001f0: 02a8 cabe c784 453f 644a 41be 3ca5 6b3e
00000200: 48be 2fbf 8d7f 973e 3f01 fbbe add6 773e
00000210: 9001 0fbf ac74 0d3e 3bb0 4f3d 5776 01bf
00000220: be5e ccbe 6b2c 4ebd d12d 783e cd9d ab3d
00000230: 10bb 7c3e 97e2 36bf e43b aabe 2e8e 3dbe
00000240: 7228 32be 7fe3 223e 8390 5a3e 7f9c 2cbe
00000250: 482f 493e 8958 623e 7f64 a73d 55c1 6a3e
00000260: 5a77 da3d 4f08 87be 1cf9 d03e 79a7 28bf
00000270: 3680 f2bc d062 6fbe 5015 2b3f 2879 c1be
00000280: 91c5 f03e e5c6 75be 859e 0d3f 6055 afbc
00000290: 156f 48bd c5d6 d53e 36df bb3e 24b8 48bc
000002a0: 7cdd b1be 4cc3 03be a8b0 a8be 45bd 2a3f
000002b0: 47fa 9b3e 9b22 473e 1a7d 9e3e 963a 23be
000002c0: 6e65 afbe 211e 3f3e 397e 1dbe 867d 3ebd
000002d0: d2ec f5be 64f2 0bbf 6dee a3be e017 c8bc
000002e0: ae79 a3be 505b ab3e 68b1 8dbd 0a8f 813e
000002f0: c09c 2dbf b30a 0e3e 3cd7 dcbe 9a16 acbd
00000300: ae71 61bf 241b 863e 6b2b 6bbe fc6b 32bf
00000310: f7d3 9bbf 3f18 ee3d 674f bbbc c940 143e
00000320: ae61 423e 0080 b13e 9a33 8dbf 42ae ddbe
00000330: 16eb 093f 30d8 843e 2ac1 843e e03d 18be
00000340: ad98 00be e5a5 833e 42bd 7bbd bc79 01bf
00000350: 8b3a 53bf 8c18 993e e069 4b3e db4b 983e
00000360: a54b 193f af80 67be 4b47 69bc 90ae 983f
00000370: d3b1 84bf b7b0 6d3f 8acd 013e 3502 903e
00000380: 6bf1 183d 6637 a2be 9790 ffbe f987 de3e
00000390: c7cd 3c3f 0548 3bbe ebdb 543e 515d 00bf
000003a0: aec6 69bd 87bc dabe 0c74 cc3e c2a9 31bf
000003b0: 653c 05be 54c8 f0bd 547d 39bf 05ba c63e
000003c0: d259 443f d07b 4dbd 9e82 7bbe b3bc 1dbf
000003d0: 3567 c13e 452f 0a3d 6731 673f 03cd a53e
000003e0: 9426 b6be c622 5c3f 17bc 09bf 54ca 673e
000003f0: 7195 8bbe dfb3 1e3f 233a b83e 5bae 60bf

bias f4 [64]
3.3057408 -2.884875 3.849795 3.9174883 0.9395239 -1.1634829 -4.121393 -3.104868
-3.374714 3.4093955 -0.70327526 3.5129402 -1.1950724 3.0234272 3.7015727 -3.851358
1.7053696 2.902878 -2.7316968 2.7336986 -0.81568223 -4.0322003 -1.6463648 0.85089
-4.3423977 3.0328138 -1.5945647 3.4830632 -3.1006198 -2.613537 -2.8568637 2.61536
1.1767954 0.8868677 -3.4244964 3.4027493 3.8030643 -1.5976499 -2.250808 -0.93619454
3.4768558 -2.3192432 3.897169 2.2473223 -1.4971069 -2.9229689 3.3664846 0.88310695
1.5795583 -2.792715 -2.8565114 -3.5839794 -3.7254462 -3.3528664 -2.257482 1.0965344
-3.2471209 2.7570233 -3.678999 -3.0813744 -1.2851188 -3.413353 -2.9344494 2.4939752
00000000: 4291 5340 cba1 38c0 0b63 7640 21b8 7a40
00000010: a384 703f 02ed 94bf 74e2 83c0 28b6 46c0
00000020: 50fb 57c0 8933 5a40 d909 34bf 03d4 6040
00000030: 22f8 98bf d57f 4140 91e6 6c40 a67c 76c0
00000040: 8d49 da3f c1c8 3940 1fd4 2ec0 ebf4 2e40
00000050: 8dd0 50bf c907 81c0 15bc d2bf edd3 593f
00000060: ecf4 8ac0 9f19 4240 b21a ccbf 82ea 5e40
00000070: 8e70 46c0 3144 27c0 dbd6 36c0 0f62 2740
00000080: 3ba1 963f c309 633f f32a 5bc0 a5c6 5940
00000090: 6865 7340 cb7f ccbf 3d0d 10c0 72aa 6fbf
000000a0: ce84 5e40 7b6e 14c0 386b 7940 21d4 0f40
000000b0: 33a1 bfbf ec11 3bc0 7c74 5740 4c13 623f
000000c0: f72e ca3f d8bb 32c0 15d1 36c0 eb5f 65c0
000000d0: b66d 6ec0 5d95 56c0 967a 10c0 3d5b 8c3f
000000e0: d4d0 4fc0 1273 3040 b874 6bc0 3d35 45c0
000000f0: c67e a4bf 6074 5ac0 05ce 3bc0 4a9d 1f40

weight f4 [2, 64]
1.0314107 -0.47502246 1.3144689 0.6667584 0.5879172 -0.741754 -1.0817624 -0.93480396
-0.98265564 0.4601733 -0.48930997 0.9498472 -0.24221219 0.6584645 1.1598108 -0.6190162
0.47427672 0.7585491 -0.70090246 0.7269349 -1.0061463 -1.0853842 -0.4662297 0.691819
-0.6562239 0.69114184 -0.26734108 1.4719727 -0.90093553 -0.52971405 -0.073547505 0.5083752
0.67050517 0.7420923 -0.5971554 1.352235 1.2710094 -0.24120575 -0.50219417 -0.63572335
0.84084684 -0.8127357 1.1665871 0.74715364 -0.18009204 -0.89414024 0.9621009 0.36411485
0.38593143 -0.43066144 -0.34618193 -1.189627 -1.4987298 -1.2925497 -0.2415038 0.52876043
-1.3701895 0.60692847 -1.0619013 -0.9665374 -0.5868783 -1.0825601 -0.67022866 0.5355726
-0.89478165 0.2602186 -1.1618094 -0.7321292 -0.55190396 0.80444443 1.2648342 0.72808385
1.1684048 -0.50175905 0.39297143 -0.9977858 0.16454957 -0.58605313 -1.2700348 0.6382262
-0.38434348 -0.8549275 0.7349701 -0.82531625 0.82879263 1.1908941 0.25658605 -0.7880124
0.65727615 -0.9091812 0.09781476 -1.3412626 0.81985456 0.6525573 0.20181894 -0.48800007
-0.59855986 -0.5809809 0.67595494 -1.3765672 -1.1902437 0.4609474 0.29104108 0.615006
-0.85678357 0.8187634 -1.3064897 -0.6525733 0.24536295 0.97373617 -0.85327643 -0.56179804
-0.4603514 0.40915185 0.34773046 1.319691 1.3954988 1.0885435 0.30701587 -0.47004482
1.2667058 -0.69206613 0.93498755 1.049364 0.526717 1.0062568 0.5621372 -0.42565742
00000000: 4405 843f 2536 f3be 8440 a83f aeb0 2a3f
00000010: be81 163f 97e3 3dbf 3177 8abf 504f 6fbf
00000020: 528f 7bbf d69b eb3e d686 fabe 3029 733f
00000030: 7906 78be 2191 283f ae74 943f d877 1ebf
00000040: 66d4 f23e 4630 423f 586e 33bf 6818 3a3f
00000050: 67c9 80bf dfed 8abf a9b5 eebe 0d1b 313f
00000060: 4afe 27bf acee 303f eee0 88be 9a69 bc3f
00000070: b6a3 66bf 579b 07bf 13a0 96bd e124 023f
00000080: 3aa6 2b3f c3f9 3d3f 2ddf 18bf 0916 ad3f
00000090: 70b0 a23f a4fe 76be cc8f 00bf c4be 22bf
000000a0: bd41 573f 720f 50bf ba52 953f 7645 3f3f
000000b0: 0c6a 38be 60e6 64bf 3f4c 763f 436d ba3e
000000c0: ce98 c53e a87f dcbe c23e b1be b345 98bf
000000d0: 61d6 bfbf 4572 a5bf c64c 77be d85c 073f
000000e0: 5f62 afbf aa5f 1b3f 62ec 87bf ff6e 77bf
000000f0: a83d 16bf 5491 8abf 1b94 2bbf 491b 093f
00000100: 6910 65bf 5f3b 853e 2cb6 94bf d26c 3bbf
00000110: 9449 0dbf 12f0 4d3f 16e6 a13f b463 3a3f
00000120: 4a8e 953f 4873 00bf 8d33 c93e e46e 7fbf
00000130: af7f 283e 9407 16bf 8090 a2bf cb62 233f
00000140: abc8 c4be 87dc 5abf 0027 3c3f ed47 53bf
00000150: c12b 543f 386f 983f 3f5f 833e 2ebb 49bf
00000160: 4043 283f 19c0 68bf 1b53 c83d 7eae abbf
00000170: fde1 513f ff0d 273f a0a9 4e3e 25db f9be
00000180: 383b 19bf 2abb 14bf 620b 2d3f 5b33 b0bf
00000190: e859 98bf 4c01 ec3e 5603 953e 0971 1d3f
000001a0: 2b56 5bbf 7a9a 513f 0e3b a7bf 0b0f 27bf
000001b0: 6d40 7b3e c646 793f 5370 5abf ffd1 0fbf
000001c0: 2eb3 ebbe 5a7c d13e ba09 b23e a2eb a83f
000001d0: b49f b23f 6555 8b3f 2f31 9d3e b7a9 f0be
000001e0: 6a23 a23f 3f2b 31bf 585b 6f3f 8f51 863f
000001f0: edd6 063f 06cd 803f 39e8 0f3f c5ef d9be

bias f4 [2]
1.5006034 -1.708601
00000000: c613 c03f 70b3 dabf
