models/nn_torch_adult.pt (torch, 36527 bytes, 4 tensors)

weight f4 [64, 101]
0.082673594 0.72780526 -0.7474305 -2.623132 0.9301802 -0.9106986 -1.0720185 0.23942965
0.010513 0.2783922 0.4722369 1.0099949 0.84798014 1.3287175 -0.23199852 1.1494126
-0.014158806 -0.35246772 0.5214454 0.0040274225 0.27256724 0.5968896 0.26046568 -0.67028755
0.66632473 -0.5038194 0.13909209 -0.84056294 -0.4091604 1.2943817 0.0056381337 1.030347
-0.084663436 0.3038182 0.55412865 0.45608816 0.38801336 -0.11042066 0.4554708 0.53537637
1.4651934 0.9042128 1.8381323 0.24887218 -0.6583098 -0.8513562 0.3711305 -2.524158
0.12801479 0.033905685 0.6694792 0.9963632 1.0337229 0.4234195 -0.600927 0.11614432
-0.011600202 0.5867738 0.28192368 -0.09418746 -0.52594644 -0.48483044 -0.42321977 0.7262947
0.67332524 0.54129237 -0.33347636 1.320358 -0.27972877 -0.87083447 -0.44799432 0.5494531
0.78627807 -0.3632576 0.20069014 0.21695028 0.18134724 -0.37835348 0.6897622 1.0736084
-0.21654353 -0.7789812 0.5890059 1.2232383 0.40992677 0.20043023 -0.65280384 1.0494269
1.0492402 -1.4786258 -0.48965466 -1.3463202 0.09781078 -0.57476234 1.5354261 0.49595612
0.21861143 -0.067632385 0.29786596 0.9935779 -0.072122104 -0.22052872 -0.40169898 -0.6268932
-0.8835195 -0.4894829 -0.2846297 -2.2969272 0.44462544 0.62767804 -0.32018661 0.9000458
0.82796264 0.5902121 0.18786275 0.9434632 0.82311225 0.7511834 -0.75202024 0.81081766
0.4013862 1.4170063 0.21700472 -0.17510775 -0.09463552 -0.06650704 -0.47410938 0.022370072
-0.8980114 0.603543 -0.47717896 -0.5307751 0.5958323 1.8408439 0.678202 0.57752985
-0.5432631 0.4519881 1.159595 -0.65393007 1.7663381 0.44445944 1.5300441 0.8876292
0.77128565 0.19189674 -0.67470187 0.21968062 -0.2119035 -0.18304135 0.45592025 0.1453725
1.3474447 2.025198 1.3940425 -1.4076979 0.7222937 0.7930237 0.66757816 0.29681718
0.23154794 0.065470695 -0.9441227 0.50919646 -0.49255508 0.22753778 0.49042022 -0.5003966
0.9719342 -0.36293513 0.4479511 -0.5728302 -0.33720496 0.7136455 -0.49284267 0.020889318
0.1956084 0.025099676 0.2622608 0.91913444 0.15057395 -0.7493792 -1.7951527 0.9868537
0.66339815 0.4337029 1.6784788 -0.2376785 0.38529456 0.518168 -0.64934593 -0.7100557
0.10202543 0.24819791 -0.53238404 0.55123174 -0.4013363 0.23971939 -0.25850627 0.5807716
1.0682566 -0.011654502 0.3885522 0.46925873 -1.0636413 -2.9619756 -0.28150767 -0.019483624
-0.42475972 1.5471039 0.21461405 -0.019834744 0.09884297 -0.21629675 0.7724385 0.54818124
-1.0821085 0.50182664 -0.13651103 -0.1958567 1.0315032 0.79654545 1.0397058 0.40573192
-0.49889627 -0.56796646 0.31328648 0.1027168 0.1179497 -1.0792482 1.8174326 0.6230362
0.12916657 1.4507792 0.96965444 -0.23151746 0.8695419 1.5140737 0.40015888 0.16519472
-0.6792335 0.5462276 0.22937009 -0.41735807 1.1437503 0.6246539 -0.12338775 1.5276358
0.39076877 -0.28395057 -0.23527925 -0.04495235 1.1795917 1.381107 1.6247778 0.30942157
00000000: c650 a93d 7251 3a3f 9b57 3fbf 65e1 27c0
00000010: 4a20 6e3f 8b23 69bf e737 89bf 0c2d 753e
00000020: b83e 2c3c 6c89 8e3e 09c9 f13e 8347 813f
00000030: 3a15 593f 6a13 aa3f 0591 6dbe f41f 933f
00000040: 56fa 67bc a676 b4be 727d 053f 78f8 833b
00000050: ef8d 8b3e c2cd 183f c25b 853e f797 2bbf
00000060: 4294 2a3f 4ffa 00bf 286e 0e3e 222f 57bf
00000070: 797d d1be 4dae a53f 18c0 b83b 69e2 833f
00000080: 0664 adbd 0f8e 9b3e 60db 0d3f 6384 e93e
00000090: b0a9 c63e 3a24 e2bd 7833 e93e 6d0e 093f
000000a0: 758b bb3f 7d7a 673f eb47 eb3f 59d8 7e3e
000000b0: fe86 28bf 7bf2 59bf d104 be3e ce8b 21c0
000000c0: 4f16 033e b0e0 0a3d fd62 2b3f a911 7f3f
000000d0: 0851 843f 71ca d83e 5ad6 19bf 13dd ed3d
000000e0: c60e 3ebc cf36 163f 4d58 903e 5be5 c0bd
000000f0: 6da4 06bf b23b f8be 43b0 d8be 73ee 393f
00000100: 0b5f 2c3f 2392 0a3f 6abd aabe 7e01 a93f
00000110: 9c38 8fbe 02ef 5ebf 835f e5be f5a8 0c3f
00000120: 8549 493f e6fc b9be b781 4d3e 3728 5e3e
00000130: 17b3 393e 8cb7 c1be 4194 303f 006c 893f
00000140: 96bd 5dbe 506b 47bf 17c9 163f 1393 9c3f
00000150: ece1 d13e 953d 4d3e 271e 27bf 9f53 863f
00000160: 814d 863f 9c43 bdbf 04b4 fabe 3854 acbf
00000170: 0551 c83d a023 13bf d888 c43f f6ed fd3e
00000180: addb 5f3e d982 8abd e381 983e 1f5b 7e3f
00000190: c1b4 93bd 48d2 61be 7dab cdbe 137c 20bf
000001a0: 552e 62bf 819d fabe fcba 91be db00 13c0
000001b0: f2a5 e33e 82af 203f 80ef a3be 6769 663f
000001c0: 5cf5 533f 2418 173f 185f 403e ce86 713f
000001d0: 7cb7 523f 8e4d 403f 6684 40bf bf91 4f3f
000001e0: 7e82 cd3e 7660 b53f 7c36 5e3e 724f 33be
000001f0: 44d0 c1bd d834 88bd 77be f2be 7141 b73c
00000200: 13e4 65bf cb81 1a3f cd50 f4be e1e0 07bf
00000210: 7788 183f c6a0 eb3f a59e 2d3f ffd8 133f
00000220: 4a13 0bbf fc6a e73e 9c6d 943f f667 27bf
00000230: 5e17 e23f 3090 e33e 7cd8 c33f ab3b 633f
00000240: fa72 453f 9480 443e 43b9 2cbf f5f3 603e
00000250: 3bfd 58be 316f 3bbe 616e e93e 87dc 143e
00000260: 1179 ac3f d89c 0140 fc6f b23f 722f b4bf
00000270: 3de8 383f 9a03 4b3f 67e6 2a3f 6cf8 973e
00000280: e71a 6d3e 8015 863d 06b2 71bf b35a 023f
00000290: 2e30 fcbe aaff 683e 5c18 fb3e fe19 00bf
000002a0: aed0 783f a2d2 b9be d959 e53e 00a5 12bf
000002b0: 21a6 acbe 79b1 363f e055 fcbe 1320 ab3c
000002c0: 924d 483e d69d cd3c 0c47 863e 654c 6b3f
000002d0: 0f30 1a3e 51d7 3fbf 90c7 e5bf 72a2 7c3f
000002e0: 76d4 293f 4e0e de3e 65d8 d63f fe61 73be
000002f0: 5445 c53e a8a6 043f 893b 26bf 36c6 35bf
00000300: b5f2 d03d 9827 7e3e 524a 08bf 861d 0d3f
00000310: f47b cdbe 0079 753e ef5a 84be 73ad 143f
00000320: a2bc 883f 86f2 3ebc 50f0 c63e ae42 f03e
00000330: 6625 88bf 0291 3dc0 c621 90be 1f9c 9fbc
00000340: 1b7a d9be 8007 c63f c9c3 5b3e 797c a2bc
00000350: 2f6e ca3d e57c 5dbe 88be 453f 9b55 0c3f
00000360: 8882 8abf b677 003f 8cc9 0bbe a98e 48be
00000370: 4c08 843f 67ea 4b3f 1415 853f 18bc cf3e
00000380: 556f ffbe 4066 11bf 1667 a03e 305d d23d
00000390: 9d8f f13d ce24 8abf a2a1 e83f 4d7f 1f3f
000003a0: 3e44 043e 22b3 b93f 463b 783f ea12 6dbe
000003b0: 4c9a 5e3f 2bcd c13f a0e1 cc3e ce28 293e
000003c0: 3fe2 2dbf 92d5 0b3f fedf 6a3e f5af d5be
000003d0: 6966 923f 51e9 1f3f b7b2 fcbd 9289 c33f
000003e0: d812 c83e f861 91be 0bed 70be f51f 38bd
000003f0: dcfc 963f 1dc8 b03f b8f8 cf3f 816c 9e3e

bias f4 [64]
0.2005798 0.5656471 0.5179023 -0.2129926 -0.49507394 0.030751066 0.20044066 -0.41820076
-0.6179423 -0.5460181 -0.25716946 -0.25521758 0.40917656 -0.18495134 0.3288163 -0.5428357
0.12529536 0.16353536 0.09934377 0.4425278 0.20671533 -0.22037809 -0.117066704 0.24947628
0.25527248 0.50920486 0.48983845 -0.7817904 -0.22706158 0.44882286 -0.08059573 -0.017755467
-0.32531336 0.33322352 -0.4218967 0.39051047 -0.5942655 0.11047143 -0.26300105 0.031878036
-0.09268622 0.09853082 0.29702324 -0.020115895 -0.07176249 0.13873006 -0.21807344 -0.34422672
-0.55359834 -0.12526302 0.7292669 0.088134155 -0.7559449 -0.07950631 -0.051328458 -0.055493303
-0.015011231 -0.22368367 0.39504397 0.56909484 -0.3883571 -0.47084847 0.43735492 -0.24183881
00000000: cb64 4d3e 40ce 103f 3f95 043f bb1a 5abe
00000010: 557a fdbe a9e9 fb3c 5140 4d3e 691e d6be
00000020: 7731 1ebf d8c7 0bbf b7ab 83be e1ab 82be
00000030: 977f d13e e263 3dbe 9c5a a83e 48f7 0abf
00000040: 6d4d 003e d075 273e bf74 cb3d 0193 e23e
00000050: 2fad 533e cbaa 61be abc0 efbd b676 7f3e
00000060: 13b3 823e 405b 023f 1bcc fa3e 6a23 48bf
00000070: d582 68be 1ccc e53e 600f a5bd ea73 91bc
00000080: 798f a6be 469c aa3e d802 d8be fdf0 c73e
00000090: c921 18bf d83e e23d 13a8 86be 8b92 023d
000000a0: 46d2 bdbd 87ca c93d 6e13 983e 17ca a4bc
000000b0: 36f8 92bd 410f 0e3e a54e 5fbe 7c3e b0be
000000c0: 9fb8 0dbf f344 00be 3cb1 3a3f ae7f b43d
000000d0: 9b85 41bf 34d4 a2bd ca3d 52bd f24c 63bd
000000e0: abf1 75bc 550d 65be 3443 ca3e 33b0 113f
000000f0: bed6 c6be 0d13 f1be fcec df3e 98a4 77be

weight f4 [2, 64]
0.338846 0.5082626 0.36709085 -0.26592565 -0.4922173 0.6283973 0.008230388 -0.038125698
0.061170977 -0.33037204 -0.40332147 -0.15292874 0.721954 -0.3107602 0.21669944 -0.6717329
0.38127175 0.7649556 -0.39172634 0.09926298 -0.0186242 0.64544743 0.28752175 -0.3568594
0.4894111 -0.014503464 0.20625411 -0.012730213 0.47055227 0.59877586 0.25497591 0.6589544
-0.22367078 0.28793198 -0.44842374 0.25974682 -0.10402256 0.42204982 -0.095067576 0.18313071
0.79655033 -0.22318874 0.22761558 -0.2835847 -0.12668444 0.39921632 -0.36690977 0.2687117
0.12193638 0.51893055 0.07424123 0.24820317 -0.32570508 -0.18346646 -0.031034138 -0.56819826
0.41122496 -0.60038483 0.07515725 0.46678773 -0.31090888 -0.3915197 0.18729386 0.80868053
-0.26852098 -0.5201032 -0.5240374 0.31256306 0.62146086 -0.65349317 -0.12088925 0.087801024
-0.11206637 0.29168338 0.42624187 0.11340904 -0.6776593 0.3249538 -0.29384306 0.6508821
-0.19936018 -0.5681229 0.39374226 -0.1944897 0.03199446 -0.61979866 -0.34912252 0.57743603
-0.5673001 -0.07657055 -0.23013085 -0.03514072 -0.37352592 -0.6412477 -0.21020672 -0.61276233
0.23818707 -0.22993986 0.5143014 -0.14452542 0.101465546 -0.5458418 0.08131041 -0.19683313
-0.95325696 0.40706533 -0.21472028 0.3043323 0.1811666 -0.31558484 0.4977682 -0.30190837
-0.12746735 -0.60896355 -0.013631949 -0.39686725 0.3698056 -0.030259049 0.073838845 0.44366008
-0.39469576 0.7029434 0.03969479 -0.4935473 0.24706937 0.4016742 -0.21331121 -0.8555183
00000000: 397d ad3e 7f1d 023f 55f3 bb3e 6827 88be
00000010: e803 fcbe a5de 203f c0d8 063c b129 1cbd
00000020: 6b8e 7a3d 8626 a9be 2780 cebe 5a99 1cbe
00000030: fad1 383f f61b 9fbe 75e6 5d3e b0f6 2bbf
00000040: 0d36 c33e 21d4 433f 5b90 c8be 644a cb3d
00000050: c791 98bc 0b3c 253f 0d36 933e 46b6 b6be
00000060: 1794 fa3e f09f 6dbc 4734 533e 6292 50bc
00000070: 3aec f03e 6049 193f 348c 823e 3cb1 283f
00000080: f409 65be d26b 933e cc97 e5be 89fd 843e
00000090: c809 d5bd ea16 d83e cab2 c2bd 9e86 3b3e
000000a0: b9ea 4b3f 978b 64be 0f14 693e 0432 91be
000000b0: 91b9 01be 1566 cc3e 99db bbbe 9494 893e
000000c0: c8b9 f93d a2d8 043f c90b 983d f928 7e3e
000000d0: d1c2 a6be a2de 3bbe 4e3b febc 7175 11bf
000000e0: 148c d23e d2b2 19bf 0bec 993d cdfe ee3e
000000f0: 732f 9fbe 4575 c8be f6c9 3f3e b005 4f3f
00000100: 957b 89be 7c25 05bf 5127 06bf 4408 a03e
00000110: 0f18 1f3f 544b 27bf c894 f7bd 06d1 b33d
00000120: 0e83 e5bd 8657 953e 603c da3e 0043 e83d
00000130: 147b 2dbf 5860 a63e 9972 96be 36a0 263f
00000140: 1325 4cbe 8170 11bf 9698 c93e 4f28 47be
00000150: 9f0c 033d 20ab 1ebf 30c0 b2be d9d2 133f
00000160: 943a 11bf 05d1 9cbd 6ca7 6bbe b7ef 0fbd
00000170: ca3e bfbe cf28 24bf 6e40 57be fedd 1cbf
00000180: 50e7 733e 5b75 6bbe 42a9 033f 79fe 13be
00000190: 2bcd cf3d 4abc 0bbf 1286 a63d a08e 49be
000001a0: a608 74bf de6a d03e a2df 5bbe 71d1 9b3e
000001b0: bd83 393e 5694 a1be 79db fe3e bc93 9abe
000001c0: cd86 02be 09e5 1bbf 8a58 5fbc 2f32 cbbe
000001d0: 2957 bd3e d3e1 f7bc d238 973d 6a27 e33e
000001e0: 9015 cabe 19f4 333f 0197 223d 3bb2 fcbe
000001f0: c1ff 7c3e 3ea8 cd3e 416e 5abe 3f03 5bbf

bias f4 [2]
0.67073876 -0.6471971
00000000: 89b5 2b3f b6ae 25bf
